…
Epoch 48/50: Train Loss: 0.0000, Train Acc: 100.00% | Val Loss: 0.0690, Val Acc: 98.78%
Epoch 49/50: Train Loss: 0.0001, Train Acc: 100.00% | Val Loss: 0.0793, Val Acc: 98.74%
Epoch 50/50: Train Loss: 0.0001, Train Acc: 99.99% | Val Loss: 0.0730, Val Acc: 98.74%
====================================================================================================
Layer (type:depth-idx)                             Output Shape              Param #
====================================================================================================
CustomModel                                        [1, 3]                    --
├─Sequential: 1-1                                  [1, 32, 28, 28]           --
│    └─Conv2dNormActivation: 2-1                   [1, 32, 112, 112]         --
│    │    └─Conv2d: 3-1                            [1, 32, 112, 112]         (864)
│    │    └─BatchNorm2d: 3-2                       [1, 32, 112, 112]         (64)
│    │    └─ReLU6: 3-3                             [1, 32, 112, 112]         --
│    └─InvertedResidual: 2-2                       [1, 16, 112, 112]         --
│    │    └─Sequential: 3-4                        [1, 16, 112, 112]         (896)
│    └─InvertedResidual: 2-3                       [1, 24, 56, 56]           --
│    │    └─Sequential: 3-5                        [1, 24, 56, 56]           (5,136)
│    └─InvertedResidual: 2-4                       [1, 24, 56, 56]           --
│    │    └─Sequential: 3-6                        [1, 24, 56, 56]           (8,832)
│    └─InvertedResidual: 2-5                       [1, 32, 28, 28]           --
│    │    └─Sequential: 3-7                        [1, 32, 28, 28]           (10,000)
│    └─InvertedResidual: 2-6                       [1, 32, 28, 28]           --
│    │    └─Sequential: 3-8                        [1, 32, 28, 28]           (14,848)
├─SEBlock: 1-2                                     [1, 32, 28, 28]           --
│    └─AdaptiveAvgPool2d: 2-7                      [1, 32, 1, 1]             --
│    └─Sequential: 2-8                             [1, 32]                   --
│    │    └─Linear: 3-9                            [1, 2]                    64
│    │    └─ReLU: 3-10                             [1, 2]                    --
│    │    └─Linear: 3-11                           [1, 32]                   64
│    │    └─Sigmoid: 3-12                          [1, 32]                   --
├─InvertedResidual: 1-3                            [1, 128, 28, 28]          --
│    └─Sequential: 2-9                             [1, 128, 28, 28]          --
│    │    └─Conv2d: 3-13                           [1, 192, 28, 28]          6,144
│    │    └─BatchNorm2d: 3-14                      [1, 192, 28, 28]          384
│    │    └─ReLU6: 3-15                            [1, 192, 28, 28]          --
│    │    └─Conv2d: 3-16                           [1, 192, 28, 28]          1,728
│    │    └─BatchNorm2d: 3-17                      [1, 192, 28, 28]          384
│    │    └─ReLU6: 3-18                            [1, 192, 28, 28]          --
│    │    └─Conv2d: 3-19                           [1, 128, 28, 28]          24,576
│    │    └─BatchNorm2d: 3-20                      [1, 128, 28, 28]          256
├─InvertedResidual: 1-4                            [1, 128, 28, 28]          --
│    └─Sequential: 2-10                            [1, 128, 28, 28]          --
│    │    └─Conv2d: 3-21                           [1, 768, 28, 28]          98,304
│    │    └─BatchNorm2d: 3-22                      [1, 768, 28, 28]          1,536
│    │    └─ReLU6: 3-23                            [1, 768, 28, 28]          --
│    │    └─Conv2d: 3-24                           [1, 768, 28, 28]          6,912
│    │    └─BatchNorm2d: 3-25                      [1, 768, 28, 28]          1,536
│    │    └─ReLU6: 3-26                            [1, 768, 28, 28]          --
│    │    └─Conv2d: 3-27                           [1, 128, 28, 28]          98,304
│    │    └─BatchNorm2d: 3-28                      [1, 128, 28, 28]          256
├─ResNetBasicBlock: 1-5                            [1, 256, 28, 28]          --
│    └─Conv2d: 2-11                                [1, 256, 28, 28]          294,912
│    └─BatchNorm2d: 2-12                           [1, 256, 28, 28]          512
│    └─ReLU: 2-13                                  [1, 256, 28, 28]          --
│    └─Conv2d: 2-14                                [1, 256, 28, 28]          589,824
│    └─BatchNorm2d: 2-15                           [1, 256, 28, 28]          512
│    └─Sequential: 2-16                            [1, 256, 28, 28]          --
│    │    └─Conv2d: 3-29                           [1, 256, 28, 28]          32,768
│    │    └─BatchNorm2d: 3-30                      [1, 256, 28, 28]          512
│    └─ReLU: 2-17                                  [1, 256, 28, 28]          --
├─ResNetBasicBlock: 1-6                            [1, 256, 28, 28]          --
│    └─Conv2d: 2-18                                [1, 256, 28, 28]          589,824
│    └─BatchNorm2d: 2-19                           [1, 256, 28, 28]          512
│    └─ReLU: 2-20                                  [1, 256, 28, 28]          --
│    └─Conv2d: 2-21                                [1, 256, 28, 28]          589,824
│    └─BatchNorm2d: 2-22                           [1, 256, 28, 28]          512
│    └─ReLU: 2-23                                  [1, 256, 28, 28]          --
├─ResNetBottleneck: 1-7                            [1, 256, 28, 28]          --
│    └─Conv2d: 2-24                                [1, 64, 28, 28]           16,384
│    └─BatchNorm2d: 2-25                           [1, 64, 28, 28]           128
│    └─ReLU: 2-26                                  [1, 64, 28, 28]           --
│    └─Conv2d: 2-27                                [1, 64, 28, 28]           36,864
│    └─BatchNorm2d: 2-28                           [1, 64, 28, 28]           128
│    └─ReLU: 2-29                                  [1, 64, 28, 28]           --
│    └─Conv2d: 2-30                                [1, 256, 28, 28]          16,384
│    └─BatchNorm2d: 2-31                           [1, 256, 28, 28]          512
│    └─ReLU: 2-32                                  [1, 256, 28, 28]          --
├─ResNetBottleneck: 1-8                            [1, 256, 28, 28]          --
│    └─Conv2d: 2-33                                [1, 64, 28, 28]           16,384
│    └─BatchNorm2d: 2-34                           [1, 64, 28, 28]           128
│    └─ReLU: 2-35                                  [1, 64, 28, 28]           --
│    └─Conv2d: 2-36                                [1, 64, 28, 28]           36,864
│    └─BatchNorm2d: 2-37                           [1, 64, 28, 28]           128
│    └─ReLU: 2-38                                  [1, 64, 28, 28]           --
│    └─Conv2d: 2-39                                [1, 256, 28, 28]          16,384
│    └─BatchNorm2d: 2-40                           [1, 256, 28, 28]          512
│    └─ReLU: 2-41                                  [1, 256, 28, 28]          --
├─ConvNeXtBlock: 1-9                               [1, 256, 28, 28]          --
│    └─Sequential: 2-42                            [1, 256, 28, 28]          --
│    │    └─Conv2d: 3-31                           [1, 256, 28, 28]          12,800
│    │    └─BatchNorm2d: 3-32                      [1, 256, 28, 28]          512
│    │    └─Conv2d: 3-33                           [1, 1024, 28, 28]         263,168
│    │    └─GELU: 3-34                             [1, 1024, 28, 28]         --
│    │    └─Conv2d: 3-35                           [1, 256, 28, 28]          262,400
├─AdaptiveAvgPool2d: 1-10                          [1, 256, 1, 1]            --
├─Sequential: 1-11                                 [1, 3]                    --
│    └─Flatten: 2-43                               [1, 256]                  --
│    └─Linear: 2-44                                [1, 512]                  131,584
│    └─ReLU: 2-45                                  [1, 512]                  --
│    └─Dropout: 2-46                               [1, 512]                  --
│    └─Linear: 2-47                                [1, 256]                  131,328
│    └─ReLU: 2-48                                  [1, 256]                  --
│    └─Dropout: 2-49                               [1, 256]                  --
│    └─Linear: 2-50                                [1, 3]                    771
====================================================================================================
Total params: 3,324,163
Trainable params: 3,283,523
Non-trainable params: 40,640
Total mult-adds (G): 2.46
====================================================================================================
Input size (MB): 0.60
Forward/backward pass size (MB): 135.88
Params size (MB): 13.30
Estimated Total Size (MB): 149.78
…
2025-04-14 10:01:57.345938: I tensorflow/cc/saved_model/loader.cc:471] SavedModel load for tags { serve }; Status: success: OK. Took 631963 microseconds.
2025-04-14 10:01:57.485922: I tensorflow/compiler/mlir/tensorflow/utils/dump_mlir_util.cc:269] disabling MLIR crash reproducer, set env var `MLIR_CRASH_REPRODUCER_DIRECTORY` to enable.
Model: "functional"
┏━━━━━━━━━━━━━━━━━━━━━━━━━━━━━━━┳━━━━━━━━━━━━━━━━━━━━━━━━━━━┳━━━━━━━━━━━━━━━━━┳━━━━━━━━━━━━━━━━━━━━━━━━━━━━┓
┃ Layer (type)                  ┃ Output Shape              ┃         Param # ┃ Connected to               ┃
┡━━━━━━━━━━━━━━━━━━━━━━━━━━━━━━━╇━━━━━━━━━━━━━━━━━━━━━━━━━━━╇━━━━━━━━━━━━━━━━━╇━━━━━━━━━━━━━━━━━━━━━━━━━━━━┩
│ input_layer (InputLayer)      │ (None, 224, 224, 3)       │               0 │ -                          │
├───────────────────────────────┼───────────────────────────┼─────────────────┼────────────────────────────┤
│ Conv1 (Conv2D)                │ (None, 112, 112, 32)      │             864 │ input_layer[0][0]          │
├───────────────────────────────┼───────────────────────────┼─────────────────┼────────────────────────────┤
│ bn_Conv1 (BatchNormalization) │ (None, 112, 112, 32)      │             128 │ Conv1[0][0]                │
├───────────────────────────────┼───────────────────────────┼─────────────────┼────────────────────────────┤
│ Conv1_relu (ReLU)             │ (None, 112, 112, 32)      │               0 │ bn_Conv1[0][0]             │
├───────────────────────────────┼───────────────────────────┼─────────────────┼────────────────────────────┤
│ expanded_conv_depthwise       │ (None, 112, 112, 32)      │             288 │ Conv1_relu[0][0]           │
│ (DepthwiseConv2D)             │                           │                 │                            │
├───────────────────────────────┼───────────────────────────┼─────────────────┼────────────────────────────┤
│ expanded_conv_depthwise_BN    │ (None, 112, 112, 32)      │             128 │ expanded_conv_depthwise[0… │
│ (BatchNormalization)          │                           │                 │                            │
├───────────────────────────────┼───────────────────────────┼─────────────────┼────────────────────────────┤
│ expanded_conv_depthwise_relu  │ (None, 112, 112, 32)      │               0 │ expanded_conv_depthwise_B… │
│ (ReLU)                        │                           │                 │                            │
├───────────────────────────────┼───────────────────────────┼─────────────────┼────────────────────────────┤
│ expanded_conv_project         │ (None, 112, 112, 16)      │             512 │ expanded_conv_depthwise_r… │
│ (Conv2D)                      │                           │                 │                            │
├───────────────────────────────┼───────────────────────────┼─────────────────┼────────────────────────────┤
│ expanded_conv_project_BN      │ (None, 112, 112, 16)      │              64 │ expanded_conv_project[0][… │
│ (BatchNormalization)          │                           │                 │                            │
├───────────────────────────────┼───────────────────────────┼─────────────────┼────────────────────────────┤
│ block_1_expand (Conv2D)       │ (None, 112, 112, 96)      │           1,536 │ expanded_conv_project_BN[… │
├───────────────────────────────┼───────────────────────────┼─────────────────┼────────────────────────────┤
│ block_1_expand_BN             │ (None, 112, 112, 96)      │             384 │ block_1_expand[0][0]       │
│ (BatchNormalization)          │                           │                 │                            │
├───────────────────────────────┼───────────────────────────┼─────────────────┼────────────────────────────┤
│ block_1_expand_relu (ReLU)    │ (None, 112, 112, 96)      │               0 │ block_1_expand_BN[0][0]    │
├───────────────────────────────┼───────────────────────────┼─────────────────┼────────────────────────────┤
│ block_1_pad (ZeroPadding2D)   │ (None, 113, 113, 96)      │               0 │ block_1_expand_relu[0][0]  │
├───────────────────────────────┼───────────────────────────┼─────────────────┼────────────────────────────┤
│ block_1_depthwise             │ (None, 56, 56, 96)        │             864 │ block_1_pad[0][0]          │
│ (DepthwiseConv2D)             │                           │                 │                            │
├───────────────────────────────┼───────────────────────────┼─────────────────┼────────────────────────────┤
│ block_1_depthwise_BN          │ (None, 56, 56, 96)        │             384 │ block_1_depthwise[0][0]    │
│ (BatchNormalization)          │                           │                 │                            │
├───────────────────────────────┼───────────────────────────┼─────────────────┼────────────────────────────┤
│ block_1_depthwise_relu (ReLU) │ (None, 56, 56, 96)        │               0 │ block_1_depthwise_BN[0][0] │
├───────────────────────────────┼───────────────────────────┼─────────────────┼────────────────────────────┤
│ block_1_project (Conv2D)      │ (None, 56, 56, 24)        │           2,304 │ block_1_depthwise_relu[0]… │
├───────────────────────────────┼───────────────────────────┼─────────────────┼────────────────────────────┤
│ block_1_project_BN            │ (None, 56, 56, 24)        │              96 │ block_1_project[0][0]      │
│ (BatchNormalization)          │                           │                 │                            │
├───────────────────────────────┼───────────────────────────┼─────────────────┼────────────────────────────┤
│ block_2_expand (Conv2D)       │ (None, 56, 56, 144)       │           3,456 │ block_1_project_BN[0][0]   │
├───────────────────────────────┼───────────────────────────┼─────────────────┼────────────────────────────┤
│ block_2_expand_BN             │ (None, 56, 56, 144)       │             576 │ block_2_expand[0][0]       │
│ (BatchNormalization)          │                           │                 │                            │
├───────────────────────────────┼───────────────────────────┼─────────────────┼────────────────────────────┤
│ block_2_expand_relu (ReLU)    │ (None, 56, 56, 144)       │               0 │ block_2_expand_BN[0][0]    │
├───────────────────────────────┼───────────────────────────┼─────────────────┼────────────────────────────┤
│ block_2_depthwise             │ (None, 56, 56, 144)       │           1,296 │ block_2_expand_relu[0][0]  │
│ (DepthwiseConv2D)             │                           │                 │                            │
├───────────────────────────────┼───────────────────────────┼─────────────────┼────────────────────────────┤
│ block_2_depthwise_BN          │ (None, 56, 56, 144)       │             576 │ block_2_depthwise[0][0]    │
│ (BatchNormalization)          │                           │                 │                            │
├───────────────────────────────┼───────────────────────────┼─────────────────┼────────────────────────────┤
│ block_2_depthwise_relu (ReLU) │ (None, 56, 56, 144)       │               0 │ block_2_depthwise_BN[0][0] │
├───────────────────────────────┼───────────────────────────┼─────────────────┼────────────────────────────┤
│ block_2_project (Conv2D)      │ (None, 56, 56, 24)        │           3,456 │ block_2_depthwise_relu[0]… │
├───────────────────────────────┼───────────────────────────┼─────────────────┼────────────────────────────┤
│ block_2_project_BN            │ (None, 56, 56, 24)        │              96 │ block_2_project[0][0]      │
│ (BatchNormalization)          │                           │                 │                            │
├───────────────────────────────┼───────────────────────────┼─────────────────┼────────────────────────────┤
│ block_2_add (Add)             │ (None, 56, 56, 24)        │               0 │ block_1_project_BN[0][0],  │
│                               │                           │                 │ block_2_project_BN[0][0]   │
├───────────────────────────────┼───────────────────────────┼─────────────────┼────────────────────────────┤
│ block_3_expand (Conv2D)       │ (None, 56, 56, 144)       │           3,456 │ block_2_add[0][0]          │
├───────────────────────────────┼───────────────────────────┼─────────────────┼────────────────────────────┤
│ block_3_expand_BN             │ (None, 56, 56, 144)       │             576 │ block_3_expand[0][0]       │
│ (BatchNormalization)          │                           │                 │                            │
├───────────────────────────────┼───────────────────────────┼─────────────────┼────────────────────────────┤
│ block_3_expand_relu (ReLU)    │ (None, 56, 56, 144)       │               0 │ block_3_expand_BN[0][0]    │
├───────────────────────────────┼───────────────────────────┼─────────────────┼────────────────────────────┤
│ block_3_pad (ZeroPadding2D)   │ (None, 57, 57, 144)       │               0 │ block_3_expand_relu[0][0]  │
├───────────────────────────────┼───────────────────────────┼─────────────────┼────────────────────────────┤
│ block_3_depthwise             │ (None, 28, 28, 144)       │           1,296 │ block_3_pad[0][0]          │
│ (DepthwiseConv2D)             │                           │                 │                            │
├───────────────────────────────┼───────────────────────────┼─────────────────┼────────────────────────────┤
│ block_3_depthwise_BN          │ (None, 28, 28, 144)       │             576 │ block_3_depthwise[0][0]    │
│ (BatchNormalization)          │                           │                 │                            │
├───────────────────────────────┼───────────────────────────┼─────────────────┼────────────────────────────┤
│ block_3_depthwise_relu (ReLU) │ (None, 28, 28, 144)       │               0 │ block_3_depthwise_BN[0][0] │
├───────────────────────────────┼───────────────────────────┼─────────────────┼────────────────────────────┤
│ block_3_project (Conv2D)      │ (None, 28, 28, 32)        │           4,608 │ block_3_depthwise_relu[0]… │
├───────────────────────────────┼───────────────────────────┼─────────────────┼────────────────────────────┤
│ block_3_project_BN            │ (None, 28, 28, 32)        │             128 │ block_3_project[0][0]      │
│ (BatchNormalization)          │                           │                 │                            │
├───────────────────────────────┼───────────────────────────┼─────────────────┼────────────────────────────┤
│ block_4_expand (Conv2D)       │ (None, 28, 28, 192)       │           6,144 │ block_3_project_BN[0][0]   │
├───────────────────────────────┼───────────────────────────┼─────────────────┼────────────────────────────┤
│ block_4_expand_BN             │ (None, 28, 28, 192)       │             768 │ block_4_expand[0][0]       │
│ (BatchNormalization)          │                           │                 │                            │
├───────────────────────────────┼───────────────────────────┼─────────────────┼────────────────────────────┤
│ block_4_expand_relu (ReLU)    │ (None, 28, 28, 192)       │               0 │ block_4_expand_BN[0][0]    │
├───────────────────────────────┼───────────────────────────┼─────────────────┼────────────────────────────┤
│ block_4_depthwise             │ (None, 28, 28, 192)       │           1,728 │ block_4_expand_relu[0][0]  │
│ (DepthwiseConv2D)             │                           │                 │                            │
├───────────────────────────────┼───────────────────────────┼─────────────────┼────────────────────────────┤
│ block_4_depthwise_BN          │ (None, 28, 28, 192)       │             768 │ block_4_depthwise[0][0]    │
│ (BatchNormalization)          │                           │                 │                            │
├───────────────────────────────┼───────────────────────────┼─────────────────┼────────────────────────────┤
│ block_4_depthwise_relu (ReLU) │ (None, 28, 28, 192)       │               0 │ block_4_depthwise_BN[0][0] │
├───────────────────────────────┼───────────────────────────┼─────────────────┼────────────────────────────┤
│ block_4_project (Conv2D)      │ (None, 28, 28, 32)        │           6,144 │ block_4_depthwise_relu[0]… │
├───────────────────────────────┼───────────────────────────┼─────────────────┼────────────────────────────┤
│ block_4_project_BN            │ (None, 28, 28, 32)        │             128 │ block_4_project[0][0]      │
│ (BatchNormalization)          │                           │                 │                            │
├───────────────────────────────┼───────────────────────────┼─────────────────┼────────────────────────────┤
│ block_4_add (Add)             │ (None, 28, 28, 32)        │               0 │ block_3_project_BN[0][0],  │
│                               │                           │                 │ block_4_project_BN[0][0]   │
├───────────────────────────────┼───────────────────────────┼─────────────────┼────────────────────────────┤
│ block_5_expand (Conv2D)       │ (None, 28, 28, 192)       │           6,144 │ block_4_add[0][0]          │
├───────────────────────────────┼───────────────────────────┼─────────────────┼────────────────────────────┤
│ block_5_expand_BN             │ (None, 28, 28, 192)       │             768 │ block_5_expand[0][0]       │
│ (BatchNormalization)          │                           │                 │                            │
├───────────────────────────────┼───────────────────────────┼─────────────────┼────────────────────────────┤
│ block_5_expand_relu (ReLU)    │ (None, 28, 28, 192)       │               0 │ block_5_expand_BN[0][0]    │
├───────────────────────────────┼───────────────────────────┼─────────────────┼────────────────────────────┤
│ block_5_depthwise             │ (None, 28, 28, 192)       │           1,728 │ block_5_expand_relu[0][0]  │
│ (DepthwiseConv2D)             │                           │                 │                            │
├───────────────────────────────┼───────────────────────────┼─────────────────┼────────────────────────────┤
│ block_5_depthwise_BN          │ (None, 28, 28, 192)       │             768 │ block_5_depthwise[0][0]    │
│ (BatchNormalization)          │                           │                 │                            │
├───────────────────────────────┼───────────────────────────┼─────────────────┼────────────────────────────┤
│ block_5_depthwise_relu (ReLU) │ (None, 28, 28, 192)       │               0 │ block_5_depthwise_BN[0][0] │
├───────────────────────────────┼───────────────────────────┼─────────────────┼────────────────────────────┤
│ block_5_project (Conv2D)      │ (None, 28, 28, 32)        │           6,144 │ block_5_depthwise_relu[0]… │
├───────────────────────────────┼───────────────────────────┼─────────────────┼────────────────────────────┤
│ block_5_project_BN            │ (None, 28, 28, 32)        │             128 │ block_5_project[0][0]      │
│ (BatchNormalization)          │                           │                 │                            │
├───────────────────────────────┼───────────────────────────┼─────────────────┼────────────────────────────┤
│ block_5_add (Add)             │ (None, 28, 28, 32)        │               0 │ block_4_add[0][0],         │
│                               │                           │                 │ block_5_project_BN[0][0]   │
├───────────────────────────────┼───────────────────────────┼─────────────────┼────────────────────────────┤
│ block_6_expand (Conv2D)       │ (None, 28, 28, 192)       │           6,144 │ block_5_add[0][0]          │
├───────────────────────────────┼───────────────────────────┼─────────────────┼────────────────────────────┤
│ block_6_expand_BN             │ (None, 28, 28, 192)       │             768 │ block_6_expand[0][0]       │
│ (BatchNormalization)          │                           │                 │                            │
├───────────────────────────────┼───────────────────────────┼─────────────────┼────────────────────────────┤
│ block_6_expand_relu (ReLU)    │ (None, 28, 28, 192)       │               0 │ block_6_expand_BN[0][0]    │
├───────────────────────────────┼───────────────────────────┼─────────────────┼────────────────────────────┤
│ block_6_pad (ZeroPadding2D)   │ (None, 29, 29, 192)       │               0 │ block_6_expand_relu[0][0]  │
├───────────────────────────────┼───────────────────────────┼─────────────────┼────────────────────────────┤
│ block_6_depthwise             │ (None, 14, 14, 192)       │           1,728 │ block_6_pad[0][0]          │
│ (DepthwiseConv2D)             │                           │                 │                            │
├───────────────────────────────┼───────────────────────────┼─────────────────┼────────────────────────────┤
│ block_6_depthwise_BN          │ (None, 14, 14, 192)       │             768 │ block_6_depthwise[0][0]    │
│ (BatchNormalization)          │                           │                 │                            │
├───────────────────────────────┼───────────────────────────┼─────────────────┼────────────────────────────┤
│ block_6_depthwise_relu (ReLU) │ (None, 14, 14, 192)       │               0 │ block_6_depthwise_BN[0][0] │
├───────────────────────────────┼───────────────────────────┼─────────────────┼────────────────────────────┤
│ block_6_project (Conv2D)      │ (None, 14, 14, 64)        │          12,288 │ block_6_depthwise_relu[0]… │
├───────────────────────────────┼───────────────────────────┼─────────────────┼────────────────────────────┤
│ block_6_project_BN            │ (None, 14, 14, 64)        │             256 │ block_6_project[0][0]      │
│ (BatchNormalization)          │                           │                 │                            │
├───────────────────────────────┼───────────────────────────┼─────────────────┼────────────────────────────┤
│ block_7_expand (Conv2D)       │ (None, 14, 14, 384)       │          24,576 │ block_6_project_BN[0][0]   │
├───────────────────────────────┼───────────────────────────┼─────────────────┼────────────────────────────┤
│ block_7_expand_BN             │ (None, 14, 14, 384)       │           1,536 │ block_7_expand[0][0]       │
│ (BatchNormalization)          │                           │                 │                            │
├───────────────────────────────┼───────────────────────────┼─────────────────┼────────────────────────────┤
│ block_7_expand_relu (ReLU)    │ (None, 14, 14, 384)       │               0 │ block_7_expand_BN[0][0]    │
├───────────────────────────────┼───────────────────────────┼─────────────────┼────────────────────────────┤
│ block_7_depthwise             │ (None, 14, 14, 384)       │           3,456 │ block_7_expand_relu[0][0]  │
│ (DepthwiseConv2D)             │                           │                 │                            │
├───────────────────────────────┼───────────────────────────┼─────────────────┼────────────────────────────┤
│ block_7_depthwise_BN          │ (None, 14, 14, 384)       │           1,536 │ block_7_depthwise[0][0]    │
│ (BatchNormalization)          │                           │                 │                            │
├───────────────────────────────┼───────────────────────────┼─────────────────┼────────────────────────────┤
│ block_7_depthwise_relu (ReLU) │ (None, 14, 14, 384)       │               0 │ block_7_depthwise_BN[0][0] │
├───────────────────────────────┼───────────────────────────┼─────────────────┼────────────────────────────┤
│ block_7_project (Conv2D)      │ (None, 14, 14, 64)        │          24,576 │ block_7_depthwise_relu[0]… │
├───────────────────────────────┼───────────────────────────┼─────────────────┼────────────────────────────┤
│ block_7_project_BN            │ (None, 14, 14, 64)        │             256 │ block_7_project[0][0]      │
│ (BatchNormalization)          │                           │                 │                            │
├───────────────────────────────┼───────────────────────────┼─────────────────┼────────────────────────────┤
│ block_7_add (Add)             │ (None, 14, 14, 64)        │               0 │ block_6_project_BN[0][0],  │
│                               │                           │                 │ block_7_project_BN[0][0]   │
├───────────────────────────────┼───────────────────────────┼─────────────────┼────────────────────────────┤
│ block_8_expand (Conv2D)       │ (None, 14, 14, 384)       │          24,576 │ block_7_add[0][0]          │
├───────────────────────────────┼───────────────────────────┼─────────────────┼────────────────────────────┤
│ block_8_expand_BN             │ (None, 14, 14, 384)       │           1,536 │ block_8_expand[0][0]       │
│ (BatchNormalization)          │                           │                 │                            │
├───────────────────────────────┼───────────────────────────┼─────────────────┼────────────────────────────┤
│ block_8_expand_relu (ReLU)    │ (None, 14, 14, 384)       │               0 │ block_8_expand_BN[0][0]    │
├───────────────────────────────┼───────────────────────────┼─────────────────┼────────────────────────────┤
│ block_8_depthwise             │ (None, 14, 14, 384)       │           3,456 │ block_8_expand_relu[0][0]  │
│ (DepthwiseConv2D)             │                           │                 │                            │
├───────────────────────────────┼───────────────────────────┼─────────────────┼────────────────────────────┤
│ block_8_depthwise_BN          │ (None, 14, 14, 384)       │           1,536 │ block_8_depthwise[0][0]    │
│ (BatchNormalization)          │                           │                 │                            │
├───────────────────────────────┼───────────────────────────┼─────────────────┼────────────────────────────┤
│ block_8_depthwise_relu (ReLU) │ (None, 14, 14, 384)       │               0 │ block_8_depthwise_BN[0][0] │
├───────────────────────────────┼───────────────────────────┼─────────────────┼────────────────────────────┤
│ block_8_project (Conv2D)      │ (None, 14, 14, 64)        │          24,576 │ block_8_depthwise_relu[0]… │
├───────────────────────────────┼───────────────────────────┼─────────────────┼────────────────────────────┤
│ block_8_project_BN            │ (None, 14, 14, 64)        │             256 │ block_8_project[0][0]      │
│ (BatchNormalization)          │                           │                 │                            │
├───────────────────────────────┼───────────────────────────┼─────────────────┼────────────────────────────┤
│ block_8_add (Add)             │ (None, 14, 14, 64)        │               0 │ block_7_add[0][0],         │
│                               │                           │                 │ block_8_project_BN[0][0]   │
├───────────────────────────────┼───────────────────────────┼─────────────────┼────────────────────────────┤
│ block_9_expand (Conv2D)       │ (None, 14, 14, 384)       │          24,576 │ block_8_add[0][0]          │
├───────────────────────────────┼───────────────────────────┼─────────────────┼────────────────────────────┤
│ block_9_expand_BN             │ (None, 14, 14, 384)       │           1,536 │ block_9_expand[0][0]       │
│ (BatchNormalization)          │                           │                 │                            │
├───────────────────────────────┼───────────────────────────┼─────────────────┼────────────────────────────┤
│ block_9_expand_relu (ReLU)    │ (None, 14, 14, 384)       │               0 │ block_9_expand_BN[0][0]    │
├───────────────────────────────┼───────────────────────────┼─────────────────┼────────────────────────────┤
│ block_9_depthwise             │ (None, 14, 14, 384)       │           3,456 │ block_9_expand_relu[0][0]  │
│ (DepthwiseConv2D)             │                           │                 │                            │
├───────────────────────────────┼───────────────────────────┼─────────────────┼────────────────────────────┤
│ block_9_depthwise_BN          │ (None, 14, 14, 384)       │           1,536 │ block_9_depthwise[0][0]    │
│ (BatchNormalization)          │                           │                 │                            │
├───────────────────────────────┼───────────────────────────┼─────────────────┼────────────────────────────┤
│ block_9_depthwise_relu (ReLU) │ (None, 14, 14, 384)       │               0 │ block_9_depthwise_BN[0][0] │
├───────────────────────────────┼───────────────────────────┼─────────────────┼────────────────────────────┤
│ block_9_project (Conv2D)      │ (None, 14, 14, 64)        │          24,576 │ block_9_depthwise_relu[0]… │
├───────────────────────────────┼───────────────────────────┼─────────────────┼────────────────────────────┤
│ block_9_project_BN            │ (None, 14, 14, 64)        │             256 │ block_9_project[0][0]      │
│ (BatchNormalization)          │                           │                 │                            │
├───────────────────────────────┼───────────────────────────┼─────────────────┼────────────────────────────┤
│ block_9_add (Add)             │ (None, 14, 14, 64)        │               0 │ block_8_add[0][0],         │
│                               │                           │                 │ block_9_project_BN[0][0]   │
├───────────────────────────────┼───────────────────────────┼─────────────────┼────────────────────────────┤
│ block_10_expand (Conv2D)      │ (None, 14, 14, 384)       │          24,576 │ block_9_add[0][0]          │
├───────────────────────────────┼───────────────────────────┼─────────────────┼────────────────────────────┤
│ block_10_expand_BN            │ (None, 14, 14, 384)       │           1,536 │ block_10_expand[0][0]      │
│ (BatchNormalization)          │                           │                 │                            │
├───────────────────────────────┼───────────────────────────┼─────────────────┼────────────────────────────┤
│ block_10_expand_relu (ReLU)   │ (None, 14, 14, 384)       │               0 │ block_10_expand_BN[0][0]   │
├───────────────────────────────┼───────────────────────────┼─────────────────┼────────────────────────────┤
│ block_10_depthwise            │ (None, 14, 14, 384)       │           3,456 │ block_10_expand_relu[0][0] │
│ (DepthwiseConv2D)             │                           │                 │                            │
├───────────────────────────────┼───────────────────────────┼─────────────────┼────────────────────────────┤
│ block_10_depthwise_BN         │ (None, 14, 14, 384)       │           1,536 │ block_10_depthwise[0][0]   │
│ (BatchNormalization)          │                           │                 │                            │
├───────────────────────────────┼───────────────────────────┼─────────────────┼────────────────────────────┤
│ block_10_depthwise_relu       │ (None, 14, 14, 384)       │               0 │ block_10_depthwise_BN[0][… │
│ (ReLU)                        │                           │                 │                            │
├───────────────────────────────┼───────────────────────────┼─────────────────┼────────────────────────────┤
│ block_10_project (Conv2D)     │ (None, 14, 14, 96)        │          36,864 │ block_10_depthwise_relu[0… │
├───────────────────────────────┼───────────────────────────┼─────────────────┼────────────────────────────┤
│ block_10_project_BN           │ (None, 14, 14, 96)        │             384 │ block_10_project[0][0]     │
│ (BatchNormalization)          │                           │                 │                            │
├───────────────────────────────┼───────────────────────────┼─────────────────┼────────────────────────────┤
│ block_11_expand (Conv2D)      │ (None, 14, 14, 576)       │          55,296 │ block_10_project_BN[0][0]  │
├───────────────────────────────┼───────────────────────────┼─────────────────┼────────────────────────────┤
│ block_11_expand_BN            │ (None, 14, 14, 576)       │           2,304 │ block_11_expand[0][0]      │
│ (BatchNormalization)          │                           │                 │                            │
├───────────────────────────────┼───────────────────────────┼─────────────────┼────────────────────────────┤
│ block_11_expand_relu (ReLU)   │ (None, 14, 14, 576)       │               0 │ block_11_expand_BN[0][0]   │
├───────────────────────────────┼───────────────────────────┼─────────────────┼────────────────────────────┤
│ block_11_depthwise            │ (None, 14, 14, 576)       │           5,184 │ block_11_expand_relu[0][0] │
│ (DepthwiseConv2D)             │                           │                 │                            │
├───────────────────────────────┼───────────────────────────┼─────────────────┼────────────────────────────┤
│ block_11_depthwise_BN         │ (None, 14, 14, 576)       │           2,304 │ block_11_depthwise[0][0]   │
│ (BatchNormalization)          │                           │                 │                            │
├───────────────────────────────┼───────────────────────────┼─────────────────┼────────────────────────────┤
│ block_11_depthwise_relu       │ (None, 14, 14, 576)       │               0 │ block_11_depthwise_BN[0][… │
│ (ReLU)                        │                           │                 │                            │
├───────────────────────────────┼───────────────────────────┼─────────────────┼────────────────────────────┤
│ block_11_project (Conv2D)     │ (None, 14, 14, 96)        │          55,296 │ block_11_depthwise_relu[0… │
├───────────────────────────────┼───────────────────────────┼─────────────────┼────────────────────────────┤
│ block_11_project_BN           │ (None, 14, 14, 96)        │             384 │ block_11_project[0][0]     │
│ (BatchNormalization)          │                           │                 │                            │
├───────────────────────────────┼───────────────────────────┼─────────────────┼────────────────────────────┤
│ block_11_add (Add)            │ (None, 14, 14, 96)        │               0 │ block_10_project_BN[0][0], │
│                               │                           │                 │ block_11_project_BN[0][0]  │
├───────────────────────────────┼───────────────────────────┼─────────────────┼────────────────────────────┤
│ block_12_expand (Conv2D)      │ (None, 14, 14, 576)       │          55,296 │ block_11_add[0][0]         │
├───────────────────────────────┼───────────────────────────┼─────────────────┼────────────────────────────┤
│ block_12_expand_BN            │ (None, 14, 14, 576)       │           2,304 │ block_12_expand[0][0]      │
│ (BatchNormalization)          │                           │                 │                            │
├───────────────────────────────┼───────────────────────────┼─────────────────┼────────────────────────────┤
│ block_12_expand_relu (ReLU)   │ (None, 14, 14, 576)       │               0 │ block_12_expand_BN[0][0]   │
├───────────────────────────────┼───────────────────────────┼─────────────────┼────────────────────────────┤
│ block_12_depthwise            │ (None, 14, 14, 576)       │           5,184 │ block_12_expand_relu[0][0] │
│ (DepthwiseConv2D)             │                           │                 │                            │
├───────────────────────────────┼───────────────────────────┼─────────────────┼────────────────────────────┤
│ block_12_depthwise_BN         │ (None, 14, 14, 576)       │           2,304 │ block_12_depthwise[0][0]   │
│ (BatchNormalization)          │                           │                 │                            │
├───────────────────────────────┼───────────────────────────┼─────────────────┼────────────────────────────┤
│ block_12_depthwise_relu       │ (None, 14, 14, 576)       │               0 │ block_12_depthwise_BN[0][… │
│ (ReLU)                        │                           │                 │                            │
├───────────────────────────────┼───────────────────────────┼─────────────────┼────────────────────────────┤
│ block_12_project (Conv2D)     │ (None, 14, 14, 96)        │          55,296 │ block_12_depthwise_relu[0… │
├───────────────────────────────┼───────────────────────────┼─────────────────┼────────────────────────────┤
│ block_12_project_BN           │ (None, 14, 14, 96)        │             384 │ block_12_project[0][0]     │
│ (BatchNormalization)          │                           │                 │                            │
├───────────────────────────────┼───────────────────────────┼─────────────────┼────────────────────────────┤
│ block_12_add (Add)            │ (None, 14, 14, 96)        │               0 │ block_11_add[0][0],        │
│                               │                           │                 │ block_12_project_BN[0][0]  │
├───────────────────────────────┼───────────────────────────┼─────────────────┼────────────────────────────┤
│ block_13_expand (Conv2D)      │ (None, 14, 14, 576)       │          55,296 │ block_12_add[0][0]         │
├───────────────────────────────┼───────────────────────────┼─────────────────┼────────────────────────────┤
│ block_13_expand_BN            │ (None, 14, 14, 576)       │           2,304 │ block_13_expand[0][0]      │
│ (BatchNormalization)          │                           │                 │                            │
├───────────────────────────────┼───────────────────────────┼─────────────────┼────────────────────────────┤
│ block_13_expand_relu (ReLU)   │ (None, 14, 14, 576)       │               0 │ block_13_expand_BN[0][0]   │
├───────────────────────────────┼───────────────────────────┼─────────────────┼────────────────────────────┤
│ block_13_pad (ZeroPadding2D)  │ (None, 15, 15, 576)       │               0 │ block_13_expand_relu[0][0] │
├───────────────────────────────┼───────────────────────────┼─────────────────┼────────────────────────────┤
│ block_13_depthwise            │ (None, 7, 7, 576)         │           5,184 │ block_13_pad[0][0]         │
│ (DepthwiseConv2D)             │                           │                 │                            │
├───────────────────────────────┼───────────────────────────┼─────────────────┼────────────────────────────┤
│ block_13_depthwise_BN         │ (None, 7, 7, 576)         │           2,304 │ block_13_depthwise[0][0]   │
│ (BatchNormalization)          │                           │                 │                            │
├───────────────────────────────┼───────────────────────────┼─────────────────┼────────────────────────────┤
│ block_13_depthwise_relu       │ (None, 7, 7, 576)         │               0 │ block_13_depthwise_BN[0][… │
│ (ReLU)                        │                           │                 │                            │
├───────────────────────────────┼───────────────────────────┼─────────────────┼────────────────────────────┤
│ block_13_project (Conv2D)     │ (None, 7, 7, 160)         │          92,160 │ block_13_depthwise_relu[0… │
├───────────────────────────────┼───────────────────────────┼─────────────────┼────────────────────────────┤
│ block_13_project_BN           │ (None, 7, 7, 160)         │             640 │ block_13_project[0][0]     │
│ (BatchNormalization)          │                           │                 │                            │
├───────────────────────────────┼───────────────────────────┼─────────────────┼────────────────────────────┤
│ block_14_expand (Conv2D)      │ (None, 7, 7, 960)         │         153,600 │ block_13_project_BN[0][0]  │
├───────────────────────────────┼───────────────────────────┼─────────────────┼────────────────────────────┤
│ block_14_expand_BN            │ (None, 7, 7, 960)         │           3,840 │ block_14_expand[0][0]      │
│ (BatchNormalization)          │                           │                 │                            │
├───────────────────────────────┼───────────────────────────┼─────────────────┼────────────────────────────┤
│ block_14_expand_relu (ReLU)   │ (None, 7, 7, 960)         │               0 │ block_14_expand_BN[0][0]   │
├───────────────────────────────┼───────────────────────────┼─────────────────┼────────────────────────────┤
│ block_14_depthwise            │ (None, 7, 7, 960)         │           8,640 │ block_14_expand_relu[0][0] │
│ (DepthwiseConv2D)             │                           │                 │                            │
├───────────────────────────────┼───────────────────────────┼─────────────────┼────────────────────────────┤
│ block_14_depthwise_BN         │ (None, 7, 7, 960)         │           3,840 │ block_14_depthwise[0][0]   │
│ (BatchNormalization)          │                           │                 │                            │
├───────────────────────────────┼───────────────────────────┼─────────────────┼────────────────────────────┤
│ block_14_depthwise_relu       │ (None, 7, 7, 960)         │               0 │ block_14_depthwise_BN[0][… │
│ (ReLU)                        │                           │                 │                            │
├───────────────────────────────┼───────────────────────────┼─────────────────┼────────────────────────────┤
│ block_14_project (Conv2D)     │ (None, 7, 7, 160)         │         153,600 │ block_14_depthwise_relu[0… │
├───────────────────────────────┼───────────────────────────┼─────────────────┼────────────────────────────┤
│ block_14_project_BN           │ (None, 7, 7, 160)         │             640 │ block_14_project[0][0]     │
│ (BatchNormalization)          │                           │                 │                            │
├───────────────────────────────┼───────────────────────────┼─────────────────┼────────────────────────────┤
│ block_14_add (Add)            │ (None, 7, 7, 160)         │               0 │ block_13_project_BN[0][0], │
│                               │                           │                 │ block_14_project_BN[0][0]  │
├───────────────────────────────┼───────────────────────────┼─────────────────┼────────────────────────────┤
│ block_15_expand (Conv2D)      │ (None, 7, 7, 960)         │         153,600 │ block_14_add[0][0]         │
├───────────────────────────────┼───────────────────────────┼─────────────────┼────────────────────────────┤
│ block_15_expand_BN            │ (None, 7, 7, 960)         │           3,840 │ block_15_expand[0][0]      │
│ (BatchNormalization)          │                           │                 │                            │
├───────────────────────────────┼───────────────────────────┼─────────────────┼────────────────────────────┤
│ block_15_expand_relu (ReLU)   │ (None, 7, 7, 960)         │               0 │ block_15_expand_BN[0][0]   │
├───────────────────────────────┼───────────────────────────┼─────────────────┼────────────────────────────┤
│ block_15_depthwise            │ (None, 7, 7, 960)         │           8,640 │ block_15_expand_relu[0][0] │
│ (DepthwiseConv2D)             │                           │                 │                            │
├───────────────────────────────┼───────────────────────────┼─────────────────┼────────────────────────────┤
│ block_15_depthwise_BN         │ (None, 7, 7, 960)         │           3,840 │ block_15_depthwise[0][0]   │
│ (BatchNormalization)          │                           │                 │                            │
├───────────────────────────────┼───────────────────────────┼─────────────────┼────────────────────────────┤
│ block_15_depthwise_relu       │ (None, 7, 7, 960)         │               0 │ block_15_depthwise_BN[0][… │
│ (ReLU)                        │                           │                 │                            │
├───────────────────────────────┼───────────────────────────┼─────────────────┼────────────────────────────┤
│ block_15_project (Conv2D)     │ (None, 7, 7, 160)         │         153,600 │ block_15_depthwise_relu[0… │
├───────────────────────────────┼───────────────────────────┼─────────────────┼────────────────────────────┤
│ block_15_project_BN           │ (None, 7, 7, 160)         │             640 │ block_15_project[0][0]     │
│ (BatchNormalization)          │                           │                 │                            │
├───────────────────────────────┼───────────────────────────┼─────────────────┼────────────────────────────┤
│ block_15_add (Add)            │ (None, 7, 7, 160)         │               0 │ block_14_add[0][0],        │
│                               │                           │                 │ block_15_project_BN[0][0]  │
├───────────────────────────────┼───────────────────────────┼─────────────────┼────────────────────────────┤
│ block_16_expand (Conv2D)      │ (None, 7, 7, 960)         │         153,600 │ block_15_add[0][0]         │
├───────────────────────────────┼───────────────────────────┼─────────────────┼────────────────────────────┤
│ block_16_expand_BN            │ (None, 7, 7, 960)         │           3,840 │ block_16_expand[0][0]      │
│ (BatchNormalization)          │                           │                 │                            │
├───────────────────────────────┼───────────────────────────┼─────────────────┼────────────────────────────┤
│ block_16_expand_relu (ReLU)   │ (None, 7, 7, 960)         │               0 │ block_16_expand_BN[0][0]   │
├───────────────────────────────┼───────────────────────────┼─────────────────┼────────────────────────────┤
│ block_16_depthwise            │ (None, 7, 7, 960)         │           8,640 │ block_16_expand_relu[0][0] │
│ (DepthwiseConv2D)             │                           │                 │                            │
├───────────────────────────────┼───────────────────────────┼─────────────────┼────────────────────────────┤
│ block_16_depthwise_BN         │ (None, 7, 7, 960)         │           3,840 │ block_16_depthwise[0][0]   │
│ (BatchNormalization)          │                           │                 │                            │
├───────────────────────────────┼───────────────────────────┼─────────────────┼────────────────────────────┤
│ block_16_depthwise_relu       │ (None, 7, 7, 960)         │               0 │ block_16_depthwise_BN[0][… │
│ (ReLU)                        │                           │                 │                            │
├───────────────────────────────┼───────────────────────────┼─────────────────┼────────────────────────────┤
│ block_16_project (Conv2D)     │ (None, 7, 7, 320)         │         307,200 │ block_16_depthwise_relu[0… │
├───────────────────────────────┼───────────────────────────┼─────────────────┼────────────────────────────┤
│ block_16_project_BN           │ (None, 7, 7, 320)         │           1,280 │ block_16_project[0][0]     │
│ (BatchNormalization)          │                           │                 │                            │
├───────────────────────────────┼───────────────────────────┼─────────────────┼────────────────────────────┤
│ Conv_1 (Conv2D)               │ (None, 7, 7, 1280)        │         409,600 │ block_16_project_BN[0][0]  │
├───────────────────────────────┼───────────────────────────┼─────────────────┼────────────────────────────┤
│ Conv_1_bn                     │ (None, 7, 7, 1280)        │           5,120 │ Conv_1[0][0]               │
│ (BatchNormalization)          │                           │                 │                            │
├───────────────────────────────┼───────────────────────────┼─────────────────┼────────────────────────────┤
│ out_relu (ReLU)               │ (None, 7, 7, 1280)        │               0 │ Conv_1_bn[0][0]            │
├───────────────────────────────┼───────────────────────────┼─────────────────┼────────────────────────────┤
│ global_average_pooling2d      │ (None, 1280)              │               0 │ out_relu[0][0]             │
│ (GlobalAveragePooling2D)      │                           │                 │                            │
├───────────────────────────────┼───────────────────────────┼─────────────────┼────────────────────────────┤
│ dense (Dense)                 │ (None, 128)               │         163,968 │ global_average_pooling2d[… │
├───────────────────────────────┼───────────────────────────┼─────────────────┼────────────────────────────┤
│ batch_normalization           │ (None, 128)               │             512 │ dense[0][0]                │
│ (BatchNormalization)          │                           │                 │                            │
├───────────────────────────────┼───────────────────────────┼─────────────────┼────────────────────────────┤
│ re_lu (ReLU)                  │ (None, 128)               │               0 │ batch_normalization[0][0]  │
├───────────────────────────────┼───────────────────────────┼─────────────────┼────────────────────────────┤
│ dropout (Dropout)             │ (None, 128)               │               0 │ re_lu[0][0]                │
├───────────────────────────────┼───────────────────────────┼─────────────────┼────────────────────────────┤
│ dense_1 (Dense)               │ (None, 64)                │           8,256 │ dropout[0][0]              │
├───────────────────────────────┼───────────────────────────┼─────────────────┼────────────────────────────┤
│ batch_normalization_1         │ (None, 64)                │             256 │ dense_1[0][0]              │
│ (BatchNormalization)          │                           │                 │                            │
├───────────────────────────────┼───────────────────────────┼─────────────────┼────────────────────────────┤
│ re_lu_1 (ReLU)                │ (None, 64)                │               0 │ batch_normalization_1[0][… │
├───────────────────────────────┼───────────────────────────┼─────────────────┼────────────────────────────┤
│ dense_2 (Dense)               │ (None, 3)                 │             195 │ re_lu_1[0][0]              │
└───────────────────────────────┴───────────────────────────┴─────────────────┴────────────────────────────┘
 Total params: 2,776,779 (10.59 MB)
 Trainable params: 172,803 (675.01 KB)
 Non-trainable params: 2,258,368 (8.61 MB)
 Optimizer params: 345,608 (1.32 MB)
✅ Model successfully converted and saved as drowsiness_detector.keras
/mnt/d/thien/model/mobilenetV2/mobilenetV2.py:90: UserWarning: FigureCanvasAgg is non-interactive, and thus cannot be shown
…
2025-04-14 12:28:39.489772: I tensorflow/cc/saved_model/loader.cc:471] SavedModel load for tags { serve }; Status: success: OK. Took 588262 microseconds.
2025-04-14 12:28:39.615065: I tensorflow/compiler/mlir/tensorflow/utils/dump_mlir_util.cc:269] disabling MLIR crash reproducer, set env var `MLIR_CRASH_REPRODUCER_DIRECTORY` to enable.
Model: "functional"
┏━━━━━━━━━━━━━━━━━━━━━━━━━━━━━━━┳━━━━━━━━━━━━━━━━━━━━━━━━━━━┳━━━━━━━━━━━━━━━━━┳━━━━━━━━━━━━━━━━━━━━━━━━━━━━┓
┃ Layer (type)                  ┃ Output Shape              ┃         Param # ┃ Connected to               ┃
┡━━━━━━━━━━━━━━━━━━━━━━━━━━━━━━━╇━━━━━━━━━━━━━━━━━━━━━━━━━━━╇━━━━━━━━━━━━━━━━━╇━━━━━━━━━━━━━━━━━━━━━━━━━━━━┩
│ input_layer (InputLayer)      │ (None, 224, 224, 3)       │               0 │ -                          │
├───────────────────────────────┼───────────────────────────┼─────────────────┼────────────────────────────┤
│ rescaling (Rescaling)         │ (None, 224, 224, 3)       │               0 │ input_layer[0][0]          │
├───────────────────────────────┼───────────────────────────┼─────────────────┼────────────────────────────┤
│ conv (Conv2D)                 │ (None, 112, 112, 16)      │             432 │ rescaling[0][0]            │
├───────────────────────────────┼───────────────────────────┼─────────────────┼────────────────────────────┤
│ conv_bn (BatchNormalization)  │ (None, 112, 112, 16)      │              64 │ conv[0][0]                 │
├───────────────────────────────┼───────────────────────────┼─────────────────┼────────────────────────────┤
│ activation (Activation)       │ (None, 112, 112, 16)      │               0 │ conv_bn[0][0]              │
├───────────────────────────────┼───────────────────────────┼─────────────────┼────────────────────────────┤
│ expanded_conv_depthwise       │ (None, 112, 112, 16)      │             144 │ activation[0][0]           │
│ (DepthwiseConv2D)             │                           │                 │                            │
├───────────────────────────────┼───────────────────────────┼─────────────────┼────────────────────────────┤
│ expanded_conv_depthwise_bn    │ (None, 112, 112, 16)      │              64 │ expanded_conv_depthwise[0… │
│ (BatchNormalization)          │                           │                 │                            │
├───────────────────────────────┼───────────────────────────┼─────────────────┼────────────────────────────┤
│ re_lu (ReLU)                  │ (None, 112, 112, 16)      │               0 │ expanded_conv_depthwise_b… │
├───────────────────────────────┼───────────────────────────┼─────────────────┼────────────────────────────┤
│ expanded_conv_project         │ (None, 112, 112, 16)      │             256 │ re_lu[0][0]                │
│ (Conv2D)                      │                           │                 │                            │
├───────────────────────────────┼───────────────────────────┼─────────────────┼────────────────────────────┤
│ expanded_conv_project_bn      │ (None, 112, 112, 16)      │              64 │ expanded_conv_project[0][… │
│ (BatchNormalization)          │                           │                 │                            │
├───────────────────────────────┼───────────────────────────┼─────────────────┼────────────────────────────┤
│ expanded_conv_add (Add)       │ (None, 112, 112, 16)      │               0 │ activation[0][0],          │
│                               │                           │                 │ expanded_conv_project_bn[… │
├───────────────────────────────┼───────────────────────────┼─────────────────┼────────────────────────────┤
│ expanded_conv_1_expand        │ (None, 112, 112, 64)      │           1,024 │ expanded_conv_add[0][0]    │
│ (Conv2D)                      │                           │                 │                            │
├───────────────────────────────┼───────────────────────────┼─────────────────┼────────────────────────────┤
│ expanded_conv_1_expand_bn     │ (None, 112, 112, 64)      │             256 │ expanded_conv_1_expand[0]… │
│ (BatchNormalization)          │                           │                 │                            │
├───────────────────────────────┼───────────────────────────┼─────────────────┼────────────────────────────┤
│ re_lu_1 (ReLU)                │ (None, 112, 112, 64)      │               0 │ expanded_conv_1_expand_bn… │
├───────────────────────────────┼───────────────────────────┼─────────────────┼────────────────────────────┤
│ expanded_conv_1_depthwise_pad │ (None, 113, 113, 64)      │               0 │ re_lu_1[0][0]              │
│ (ZeroPadding2D)               │                           │                 │                            │
├───────────────────────────────┼───────────────────────────┼─────────────────┼────────────────────────────┤
│ expanded_conv_1_depthwise     │ (None, 56, 56, 64)        │             576 │ expanded_conv_1_depthwise… │
│ (DepthwiseConv2D)             │                           │                 │                            │
├───────────────────────────────┼───────────────────────────┼─────────────────┼────────────────────────────┤
│ expanded_conv_1_depthwise_bn  │ (None, 56, 56, 64)        │             256 │ expanded_conv_1_depthwise… │
│ (BatchNormalization)          │                           │                 │                            │
├───────────────────────────────┼───────────────────────────┼─────────────────┼────────────────────────────┤
│ re_lu_2 (ReLU)                │ (None, 56, 56, 64)        │               0 │ expanded_conv_1_depthwise… │
├───────────────────────────────┼───────────────────────────┼─────────────────┼────────────────────────────┤
│ expanded_conv_1_project       │ (None, 56, 56, 24)        │           1,536 │ re_lu_2[0][0]              │
│ (Conv2D)                      │                           │                 │                            │
├───────────────────────────────┼───────────────────────────┼─────────────────┼────────────────────────────┤
│ expanded_conv_1_project_bn    │ (None, 56, 56, 24)        │              96 │ expanded_conv_1_project[0… │
│ (BatchNormalization)          │                           │                 │                            │
├───────────────────────────────┼───────────────────────────┼─────────────────┼────────────────────────────┤
│ expanded_conv_2_expand        │ (None, 56, 56, 72)        │           1,728 │ expanded_conv_1_project_b… │
│ (Conv2D)                      │                           │                 │                            │
├───────────────────────────────┼───────────────────────────┼─────────────────┼────────────────────────────┤
│ expanded_conv_2_expand_bn     │ (None, 56, 56, 72)        │             288 │ expanded_conv_2_expand[0]… │
│ (BatchNormalization)          │                           │                 │                            │
├───────────────────────────────┼───────────────────────────┼─────────────────┼────────────────────────────┤
│ re_lu_3 (ReLU)                │ (None, 56, 56, 72)        │               0 │ expanded_conv_2_expand_bn… │
├───────────────────────────────┼───────────────────────────┼─────────────────┼────────────────────────────┤
│ expanded_conv_2_depthwise     │ (None, 56, 56, 72)        │             648 │ re_lu_3[0][0]              │
│ (DepthwiseConv2D)             │                           │                 │                            │
├───────────────────────────────┼───────────────────────────┼─────────────────┼────────────────────────────┤
│ expanded_conv_2_depthwise_bn  │ (None, 56, 56, 72)        │             288 │ expanded_conv_2_depthwise… │
│ (BatchNormalization)          │                           │                 │                            │
├───────────────────────────────┼───────────────────────────┼─────────────────┼────────────────────────────┤
│ re_lu_4 (ReLU)                │ (None, 56, 56, 72)        │               0 │ expanded_conv_2_depthwise… │
├───────────────────────────────┼───────────────────────────┼─────────────────┼────────────────────────────┤
│ expanded_conv_2_project       │ (None, 56, 56, 24)        │           1,728 │ re_lu_4[0][0]              │
│ (Conv2D)                      │                           │                 │                            │
├───────────────────────────────┼───────────────────────────┼─────────────────┼────────────────────────────┤
│ expanded_conv_2_project_bn    │ (None, 56, 56, 24)        │              96 │ expanded_conv_2_project[0… │
│ (BatchNormalization)          │                           │                 │                            │
├───────────────────────────────┼───────────────────────────┼─────────────────┼────────────────────────────┤
│ expanded_conv_2_add (Add)     │ (None, 56, 56, 24)        │               0 │ expanded_conv_1_project_b… │
│                               │                           │                 │ expanded_conv_2_project_b… │
├───────────────────────────────┼───────────────────────────┼─────────────────┼────────────────────────────┤
│ expanded_conv_3_expand        │ (None, 56, 56, 72)        │           1,728 │ expanded_conv_2_add[0][0]  │
│ (Conv2D)                      │                           │                 │                            │
├───────────────────────────────┼───────────────────────────┼─────────────────┼────────────────────────────┤
│ expanded_conv_3_expand_bn     │ (None, 56, 56, 72)        │             288 │ expanded_conv_3_expand[0]… │
│ (BatchNormalization)          │                           │                 │                            │
├───────────────────────────────┼───────────────────────────┼─────────────────┼────────────────────────────┤
│ re_lu_5 (ReLU)                │ (None, 56, 56, 72)        │               0 │ expanded_conv_3_expand_bn… │
├───────────────────────────────┼───────────────────────────┼─────────────────┼────────────────────────────┤
│ expanded_conv_3_depthwise_pad │ (None, 59, 59, 72)        │               0 │ re_lu_5[0][0]              │
│ (ZeroPadding2D)               │                           │                 │                            │
├───────────────────────────────┼───────────────────────────┼─────────────────┼────────────────────────────┤
│ expanded_conv_3_depthwise     │ (None, 28, 28, 72)        │           1,800 │ expanded_conv_3_depthwise… │
│ (DepthwiseConv2D)             │                           │                 │                            │
├───────────────────────────────┼───────────────────────────┼─────────────────┼────────────────────────────┤
│ expanded_conv_3_depthwise_bn  │ (None, 28, 28, 72)        │             288 │ expanded_conv_3_depthwise… │
│ (BatchNormalization)          │                           │                 │                            │
├───────────────────────────────┼───────────────────────────┼─────────────────┼────────────────────────────┤
│ re_lu_6 (ReLU)                │ (None, 28, 28, 72)        │               0 │ expanded_conv_3_depthwise… │
├───────────────────────────────┼───────────────────────────┼─────────────────┼────────────────────────────┤
│ expanded_conv_3_squeeze_exci… │ (None, 1, 1, 72)          │               0 │ re_lu_6[0][0]              │
│ (GlobalAveragePooling2D)      │                           │                 │                            │
├───────────────────────────────┼───────────────────────────┼─────────────────┼────────────────────────────┤
│ expanded_conv_3_squeeze_exci… │ (None, 1, 1, 24)          │           1,752 │ expanded_conv_3_squeeze_e… │
│ (Conv2D)                      │                           │                 │                            │
├───────────────────────────────┼───────────────────────────┼─────────────────┼────────────────────────────┤
│ expanded_conv_3_squeeze_exci… │ (None, 1, 1, 24)          │               0 │ expanded_conv_3_squeeze_e… │
│ (ReLU)                        │                           │                 │                            │
├───────────────────────────────┼───────────────────────────┼─────────────────┼────────────────────────────┤
│ expanded_conv_3_squeeze_exci… │ (None, 1, 1, 72)          │           1,800 │ expanded_conv_3_squeeze_e… │
│ (Conv2D)                      │                           │                 │                            │
├───────────────────────────────┼───────────────────────────┼─────────────────┼────────────────────────────┤
│ add (Add)                     │ (None, 1, 1, 72)          │               0 │ expanded_conv_3_squeeze_e… │
├───────────────────────────────┼───────────────────────────┼─────────────────┼────────────────────────────┤
│ re_lu_7 (ReLU)                │ (None, 1, 1, 72)          │               0 │ add[0][0]                  │
├───────────────────────────────┼───────────────────────────┼─────────────────┼────────────────────────────┤
│ multiply (Multiply)           │ (None, 1, 1, 72)          │               0 │ re_lu_7[0][0]              │
├───────────────────────────────┼───────────────────────────┼─────────────────┼────────────────────────────┤
│ expanded_conv_3_squeeze_exci… │ (None, 28, 28, 72)        │               0 │ re_lu_6[0][0],             │
│ (Multiply)                    │                           │                 │ multiply[0][0]             │
├───────────────────────────────┼───────────────────────────┼─────────────────┼────────────────────────────┤
│ expanded_conv_3_project       │ (None, 28, 28, 40)        │           2,880 │ expanded_conv_3_squeeze_e… │
│ (Conv2D)                      │                           │                 │                            │
├───────────────────────────────┼───────────────────────────┼─────────────────┼────────────────────────────┤
│ expanded_conv_3_project_bn    │ (None, 28, 28, 40)        │             160 │ expanded_conv_3_project[0… │
│ (BatchNormalization)          │                           │                 │                            │
├───────────────────────────────┼───────────────────────────┼─────────────────┼────────────────────────────┤
│ expanded_conv_4_expand        │ (None, 28, 28, 120)       │           4,800 │ expanded_conv_3_project_b… │
│ (Conv2D)                      │                           │                 │                            │
├───────────────────────────────┼───────────────────────────┼─────────────────┼────────────────────────────┤
│ expanded_conv_4_expand_bn     │ (None, 28, 28, 120)       │             480 │ expanded_conv_4_expand[0]… │
│ (BatchNormalization)          │                           │                 │                            │
├───────────────────────────────┼───────────────────────────┼─────────────────┼────────────────────────────┤
│ re_lu_8 (ReLU)                │ (None, 28, 28, 120)       │               0 │ expanded_conv_4_expand_bn… │
├───────────────────────────────┼───────────────────────────┼─────────────────┼────────────────────────────┤
│ expanded_conv_4_depthwise     │ (None, 28, 28, 120)       │           3,000 │ re_lu_8[0][0]              │
│ (DepthwiseConv2D)             │                           │                 │                            │
├───────────────────────────────┼───────────────────────────┼─────────────────┼────────────────────────────┤
│ expanded_conv_4_depthwise_bn  │ (None, 28, 28, 120)       │             480 │ expanded_conv_4_depthwise… │
│ (BatchNormalization)          │                           │                 │                            │
├───────────────────────────────┼───────────────────────────┼─────────────────┼────────────────────────────┤
│ re_lu_9 (ReLU)                │ (None, 28, 28, 120)       │               0 │ expanded_conv_4_depthwise… │
├───────────────────────────────┼───────────────────────────┼─────────────────┼────────────────────────────┤
│ expanded_conv_4_squeeze_exci… │ (None, 1, 1, 120)         │               0 │ re_lu_9[0][0]              │
│ (GlobalAveragePooling2D)      │                           │                 │                            │
├───────────────────────────────┼───────────────────────────┼─────────────────┼────────────────────────────┤
│ expanded_conv_4_squeeze_exci… │ (None, 1, 1, 32)          │           3,872 │ expanded_conv_4_squeeze_e… │
│ (Conv2D)                      │                           │                 │                            │
├───────────────────────────────┼───────────────────────────┼─────────────────┼────────────────────────────┤
│ expanded_conv_4_squeeze_exci… │ (None, 1, 1, 32)          │               0 │ expanded_conv_4_squeeze_e… │
│ (ReLU)                        │                           │                 │                            │
├───────────────────────────────┼───────────────────────────┼─────────────────┼────────────────────────────┤
│ expanded_conv_4_squeeze_exci… │ (None, 1, 1, 120)         │           3,960 │ expanded_conv_4_squeeze_e… │
│ (Conv2D)                      │                           │                 │                            │
├───────────────────────────────┼───────────────────────────┼─────────────────┼────────────────────────────┤
│ add_1 (Add)                   │ (None, 1, 1, 120)         │               0 │ expanded_conv_4_squeeze_e… │
├───────────────────────────────┼───────────────────────────┼─────────────────┼────────────────────────────┤
│ re_lu_10 (ReLU)               │ (None, 1, 1, 120)         │               0 │ add_1[0][0]                │
├───────────────────────────────┼───────────────────────────┼─────────────────┼────────────────────────────┤
│ multiply_1 (Multiply)         │ (None, 1, 1, 120)         │               0 │ re_lu_10[0][0]             │
├───────────────────────────────┼───────────────────────────┼─────────────────┼────────────────────────────┤
│ expanded_conv_4_squeeze_exci… │ (None, 28, 28, 120)       │               0 │ re_lu_9[0][0],             │
│ (Multiply)                    │                           │                 │ multiply_1[0][0]           │
├───────────────────────────────┼───────────────────────────┼─────────────────┼────────────────────────────┤
│ expanded_conv_4_project       │ (None, 28, 28, 40)        │           4,800 │ expanded_conv_4_squeeze_e… │
│ (Conv2D)                      │                           │                 │                            │
├───────────────────────────────┼───────────────────────────┼─────────────────┼────────────────────────────┤
│ expanded_conv_4_project_bn    │ (None, 28, 28, 40)        │             160 │ expanded_conv_4_project[0… │
│ (BatchNormalization)          │                           │                 │                            │
├───────────────────────────────┼───────────────────────────┼─────────────────┼────────────────────────────┤
│ expanded_conv_4_add (Add)     │ (None, 28, 28, 40)        │               0 │ expanded_conv_3_project_b… │
│                               │                           │                 │ expanded_conv_4_project_b… │
├───────────────────────────────┼───────────────────────────┼─────────────────┼────────────────────────────┤
│ expanded_conv_5_expand        │ (None, 28, 28, 120)       │           4,800 │ expanded_conv_4_add[0][0]  │
│ (Conv2D)                      │                           │                 │                            │
├───────────────────────────────┼───────────────────────────┼─────────────────┼────────────────────────────┤
│ expanded_conv_5_expand_bn     │ (None, 28, 28, 120)       │             480 │ expanded_conv_5_expand[0]… │
│ (BatchNormalization)          │                           │                 │                            │
├───────────────────────────────┼───────────────────────────┼─────────────────┼────────────────────────────┤
│ re_lu_11 (ReLU)               │ (None, 28, 28, 120)       │               0 │ expanded_conv_5_expand_bn… │
├───────────────────────────────┼───────────────────────────┼─────────────────┼────────────────────────────┤
│ expanded_conv_5_depthwise     │ (None, 28, 28, 120)       │           3,000 │ re_lu_11[0][0]             │
│ (DepthwiseConv2D)             │                           │                 │                            │
├───────────────────────────────┼───────────────────────────┼─────────────────┼────────────────────────────┤
│ expanded_conv_5_depthwise_bn  │ (None, 28, 28, 120)       │             480 │ expanded_conv_5_depthwise… │
│ (BatchNormalization)          │                           │                 │                            │
├───────────────────────────────┼───────────────────────────┼─────────────────┼────────────────────────────┤
│ re_lu_12 (ReLU)               │ (None, 28, 28, 120)       │               0 │ expanded_conv_5_depthwise… │
├───────────────────────────────┼───────────────────────────┼─────────────────┼────────────────────────────┤
│ expanded_conv_5_squeeze_exci… │ (None, 1, 1, 120)         │               0 │ re_lu_12[0][0]             │
│ (GlobalAveragePooling2D)      │                           │                 │                            │
├───────────────────────────────┼───────────────────────────┼─────────────────┼────────────────────────────┤
│ expanded_conv_5_squeeze_exci… │ (None, 1, 1, 32)          │           3,872 │ expanded_conv_5_squeeze_e… │
│ (Conv2D)                      │                           │                 │                            │
├───────────────────────────────┼───────────────────────────┼─────────────────┼────────────────────────────┤
│ expanded_conv_5_squeeze_exci… │ (None, 1, 1, 32)          │               0 │ expanded_conv_5_squeeze_e… │
│ (ReLU)                        │                           │                 │                            │
├───────────────────────────────┼───────────────────────────┼─────────────────┼────────────────────────────┤
│ expanded_conv_5_squeeze_exci… │ (None, 1, 1, 120)         │           3,960 │ expanded_conv_5_squeeze_e… │
│ (Conv2D)                      │                           │                 │                            │
├───────────────────────────────┼───────────────────────────┼─────────────────┼────────────────────────────┤
│ add_2 (Add)                   │ (None, 1, 1, 120)         │               0 │ expanded_conv_5_squeeze_e… │
├───────────────────────────────┼───────────────────────────┼─────────────────┼────────────────────────────┤
│ re_lu_13 (ReLU)               │ (None, 1, 1, 120)         │               0 │ add_2[0][0]                │
├───────────────────────────────┼───────────────────────────┼─────────────────┼────────────────────────────┤
│ multiply_2 (Multiply)         │ (None, 1, 1, 120)         │               0 │ re_lu_13[0][0]             │
├───────────────────────────────┼───────────────────────────┼─────────────────┼────────────────────────────┤
│ expanded_conv_5_squeeze_exci… │ (None, 28, 28, 120)       │               0 │ re_lu_12[0][0],            │
│ (Multiply)                    │                           │                 │ multiply_2[0][0]           │
├───────────────────────────────┼───────────────────────────┼─────────────────┼────────────────────────────┤
│ expanded_conv_5_project       │ (None, 28, 28, 40)        │           4,800 │ expanded_conv_5_squeeze_e… │
│ (Conv2D)                      │                           │                 │                            │
├───────────────────────────────┼───────────────────────────┼─────────────────┼────────────────────────────┤
│ expanded_conv_5_project_bn    │ (None, 28, 28, 40)        │             160 │ expanded_conv_5_project[0… │
│ (BatchNormalization)          │                           │                 │                            │
├───────────────────────────────┼───────────────────────────┼─────────────────┼────────────────────────────┤
│ expanded_conv_5_add (Add)     │ (None, 28, 28, 40)        │               0 │ expanded_conv_4_add[0][0], │
│                               │                           │                 │ expanded_conv_5_project_b… │
├───────────────────────────────┼───────────────────────────┼─────────────────┼────────────────────────────┤
│ expanded_conv_6_expand        │ (None, 28, 28, 240)       │           9,600 │ expanded_conv_5_add[0][0]  │
│ (Conv2D)                      │                           │                 │                            │
├───────────────────────────────┼───────────────────────────┼─────────────────┼────────────────────────────┤
│ expanded_conv_6_expand_bn     │ (None, 28, 28, 240)       │             960 │ expanded_conv_6_expand[0]… │
│ (BatchNormalization)          │                           │                 │                            │
├───────────────────────────────┼───────────────────────────┼─────────────────┼────────────────────────────┤
│ activation_1 (Activation)     │ (None, 28, 28, 240)       │               0 │ expanded_conv_6_expand_bn… │
├───────────────────────────────┼───────────────────────────┼─────────────────┼────────────────────────────┤
│ expanded_conv_6_depthwise_pad │ (None, 29, 29, 240)       │               0 │ activation_1[0][0]         │
│ (ZeroPadding2D)               │                           │                 │                            │
├───────────────────────────────┼───────────────────────────┼─────────────────┼────────────────────────────┤
│ expanded_conv_6_depthwise     │ (None, 14, 14, 240)       │           2,160 │ expanded_conv_6_depthwise… │
│ (DepthwiseConv2D)             │                           │                 │                            │
├───────────────────────────────┼───────────────────────────┼─────────────────┼────────────────────────────┤
│ expanded_conv_6_depthwise_bn  │ (None, 14, 14, 240)       │             960 │ expanded_conv_6_depthwise… │
│ (BatchNormalization)          │                           │                 │                            │
├───────────────────────────────┼───────────────────────────┼─────────────────┼────────────────────────────┤
│ activation_2 (Activation)     │ (None, 14, 14, 240)       │               0 │ expanded_conv_6_depthwise… │
├───────────────────────────────┼───────────────────────────┼─────────────────┼────────────────────────────┤
│ expanded_conv_6_project       │ (None, 14, 14, 80)        │          19,200 │ activation_2[0][0]         │
│ (Conv2D)                      │                           │                 │                            │
├───────────────────────────────┼───────────────────────────┼─────────────────┼────────────────────────────┤
│ expanded_conv_6_project_bn    │ (None, 14, 14, 80)        │             320 │ expanded_conv_6_project[0… │
│ (BatchNormalization)          │                           │                 │                            │
├───────────────────────────────┼───────────────────────────┼─────────────────┼────────────────────────────┤
│ expanded_conv_7_expand        │ (None, 14, 14, 200)       │          16,000 │ expanded_conv_6_project_b… │
│ (Conv2D)                      │                           │                 │                            │
├───────────────────────────────┼───────────────────────────┼─────────────────┼────────────────────────────┤
│ expanded_conv_7_expand_bn     │ (None, 14, 14, 200)       │             800 │ expanded_conv_7_expand[0]… │
│ (BatchNormalization)          │                           │                 │                            │
├───────────────────────────────┼───────────────────────────┼─────────────────┼────────────────────────────┤
│ activation_3 (Activation)     │ (None, 14, 14, 200)       │               0 │ expanded_conv_7_expand_bn… │
├───────────────────────────────┼───────────────────────────┼─────────────────┼────────────────────────────┤
│ expanded_conv_7_depthwise     │ (None, 14, 14, 200)       │           1,800 │ activation_3[0][0]         │
│ (DepthwiseConv2D)             │                           │                 │                            │
├───────────────────────────────┼───────────────────────────┼─────────────────┼────────────────────────────┤
│ expanded_conv_7_depthwise_bn  │ (None, 14, 14, 200)       │             800 │ expanded_conv_7_depthwise… │
│ (BatchNormalization)          │                           │                 │                            │
├───────────────────────────────┼───────────────────────────┼─────────────────┼────────────────────────────┤
│ activation_4 (Activation)     │ (None, 14, 14, 200)       │               0 │ expanded_conv_7_depthwise… │
├───────────────────────────────┼───────────────────────────┼─────────────────┼────────────────────────────┤
│ expanded_conv_7_project       │ (None, 14, 14, 80)        │          16,000 │ activation_4[0][0]         │
│ (Conv2D)                      │                           │                 │                            │
├───────────────────────────────┼───────────────────────────┼─────────────────┼────────────────────────────┤
│ expanded_conv_7_project_bn    │ (None, 14, 14, 80)        │             320 │ expanded_conv_7_project[0… │
│ (BatchNormalization)          │                           │                 │                            │
├───────────────────────────────┼───────────────────────────┼─────────────────┼────────────────────────────┤
│ expanded_conv_7_add (Add)     │ (None, 14, 14, 80)        │               0 │ expanded_conv_6_project_b… │
│                               │                           │                 │ expanded_conv_7_project_b… │
├───────────────────────────────┼───────────────────────────┼─────────────────┼────────────────────────────┤
│ expanded_conv_8_expand        │ (None, 14, 14, 184)       │          14,720 │ expanded_conv_7_add[0][0]  │
│ (Conv2D)                      │                           │                 │                            │
├───────────────────────────────┼───────────────────────────┼─────────────────┼────────────────────────────┤
│ expanded_conv_8_expand_bn     │ (None, 14, 14, 184)       │             736 │ expanded_conv_8_expand[0]… │
│ (BatchNormalization)          │                           │                 │                            │
├───────────────────────────────┼───────────────────────────┼─────────────────┼────────────────────────────┤
│ activation_5 (Activation)     │ (None, 14, 14, 184)       │               0 │ expanded_conv_8_expand_bn… │
├───────────────────────────────┼───────────────────────────┼─────────────────┼────────────────────────────┤
│ expanded_conv_8_depthwise     │ (None, 14, 14, 184)       │           1,656 │ activation_5[0][0]         │
│ (DepthwiseConv2D)             │                           │                 │                            │
├───────────────────────────────┼───────────────────────────┼─────────────────┼────────────────────────────┤
│ expanded_conv_8_depthwise_bn  │ (None, 14, 14, 184)       │             736 │ expanded_conv_8_depthwise… │
│ (BatchNormalization)          │                           │                 │                            │
├───────────────────────────────┼───────────────────────────┼─────────────────┼────────────────────────────┤
│ activation_6 (Activation)     │ (None, 14, 14, 184)       │               0 │ expanded_conv_8_depthwise… │
├───────────────────────────────┼───────────────────────────┼─────────────────┼────────────────────────────┤
│ expanded_conv_8_project       │ (None, 14, 14, 80)        │          14,720 │ activation_6[0][0]         │
│ (Conv2D)                      │                           │                 │                            │
├───────────────────────────────┼───────────────────────────┼─────────────────┼────────────────────────────┤
│ expanded_conv_8_project_bn    │ (None, 14, 14, 80)        │             320 │ expanded_conv_8_project[0… │
│ (BatchNormalization)          │                           │                 │                            │
├───────────────────────────────┼───────────────────────────┼─────────────────┼────────────────────────────┤
│ expanded_conv_8_add (Add)     │ (None, 14, 14, 80)        │               0 │ expanded_conv_7_add[0][0], │
│                               │                           │                 │ expanded_conv_8_project_b… │
├───────────────────────────────┼───────────────────────────┼─────────────────┼────────────────────────────┤
│ expanded_conv_9_expand        │ (None, 14, 14, 184)       │          14,720 │ expanded_conv_8_add[0][0]  │
│ (Conv2D)                      │                           │                 │                            │
├───────────────────────────────┼───────────────────────────┼─────────────────┼────────────────────────────┤
│ expanded_conv_9_expand_bn     │ (None, 14, 14, 184)       │             736 │ expanded_conv_9_expand[0]… │
│ (BatchNormalization)          │                           │                 │                            │
├───────────────────────────────┼───────────────────────────┼─────────────────┼────────────────────────────┤
│ activation_7 (Activation)     │ (None, 14, 14, 184)       │               0 │ expanded_conv_9_expand_bn… │
├───────────────────────────────┼───────────────────────────┼─────────────────┼────────────────────────────┤
│ expanded_conv_9_depthwise     │ (None, 14, 14, 184)       │           1,656 │ activation_7[0][0]         │
│ (DepthwiseConv2D)             │                           │                 │                            │
├───────────────────────────────┼───────────────────────────┼─────────────────┼────────────────────────────┤
│ expanded_conv_9_depthwise_bn  │ (None, 14, 14, 184)       │             736 │ expanded_conv_9_depthwise… │
│ (BatchNormalization)          │                           │                 │                            │
├───────────────────────────────┼───────────────────────────┼─────────────────┼────────────────────────────┤
│ activation_8 (Activation)     │ (None, 14, 14, 184)       │               0 │ expanded_conv_9_depthwise… │
├───────────────────────────────┼───────────────────────────┼─────────────────┼────────────────────────────┤
│ expanded_conv_9_project       │ (None, 14, 14, 80)        │          14,720 │ activation_8[0][0]         │
│ (Conv2D)                      │                           │                 │                            │
├───────────────────────────────┼───────────────────────────┼─────────────────┼────────────────────────────┤
│ expanded_conv_9_project_bn    │ (None, 14, 14, 80)        │             320 │ expanded_conv_9_project[0… │
│ (BatchNormalization)          │                           │                 │                            │
├───────────────────────────────┼───────────────────────────┼─────────────────┼────────────────────────────┤
│ expanded_conv_9_add (Add)     │ (None, 14, 14, 80)        │               0 │ expanded_conv_8_add[0][0], │
│                               │                           │                 │ expanded_conv_9_project_b… │
├───────────────────────────────┼───────────────────────────┼─────────────────┼────────────────────────────┤
│ expanded_conv_10_expand       │ (None, 14, 14, 480)       │          38,400 │ expanded_conv_9_add[0][0]  │
│ (Conv2D)                      │                           │                 │                            │
├───────────────────────────────┼───────────────────────────┼─────────────────┼────────────────────────────┤
│ expanded_conv_10_expand_bn    │ (None, 14, 14, 480)       │           1,920 │ expanded_conv_10_expand[0… │
│ (BatchNormalization)          │                           │                 │                            │
├───────────────────────────────┼───────────────────────────┼─────────────────┼────────────────────────────┤
│ activation_9 (Activation)     │ (None, 14, 14, 480)       │               0 │ expanded_conv_10_expand_b… │
├───────────────────────────────┼───────────────────────────┼─────────────────┼────────────────────────────┤
│ expanded_conv_10_depthwise    │ (None, 14, 14, 480)       │           4,320 │ activation_9[0][0]         │
│ (DepthwiseConv2D)             │                           │                 │                            │
├───────────────────────────────┼───────────────────────────┼─────────────────┼────────────────────────────┤
│ expanded_conv_10_depthwise_bn │ (None, 14, 14, 480)       │           1,920 │ expanded_conv_10_depthwis… │
│ (BatchNormalization)          │                           │                 │                            │
├───────────────────────────────┼───────────────────────────┼─────────────────┼────────────────────────────┤
│ activation_10 (Activation)    │ (None, 14, 14, 480)       │               0 │ expanded_conv_10_depthwis… │
├───────────────────────────────┼───────────────────────────┼─────────────────┼────────────────────────────┤
│ expanded_conv_10_squeeze_exc… │ (None, 1, 1, 480)         │               0 │ activation_10[0][0]        │
│ (GlobalAveragePooling2D)      │                           │                 │                            │
├───────────────────────────────┼───────────────────────────┼─────────────────┼────────────────────────────┤
│ expanded_conv_10_squeeze_exc… │ (None, 1, 1, 120)         │          57,720 │ expanded_conv_10_squeeze_… │
│ (Conv2D)                      │                           │                 │                            │
├───────────────────────────────┼───────────────────────────┼─────────────────┼────────────────────────────┤
│ expanded_conv_10_squeeze_exc… │ (None, 1, 1, 120)         │               0 │ expanded_conv_10_squeeze_… │
│ (ReLU)                        │                           │                 │                            │
├───────────────────────────────┼───────────────────────────┼─────────────────┼────────────────────────────┤
│ expanded_conv_10_squeeze_exc… │ (None, 1, 1, 480)         │          58,080 │ expanded_conv_10_squeeze_… │
│ (Conv2D)                      │                           │                 │                            │
├───────────────────────────────┼───────────────────────────┼─────────────────┼────────────────────────────┤
│ add_3 (Add)                   │ (None, 1, 1, 480)         │               0 │ expanded_conv_10_squeeze_… │
├───────────────────────────────┼───────────────────────────┼─────────────────┼────────────────────────────┤
│ re_lu_14 (ReLU)               │ (None, 1, 1, 480)         │               0 │ add_3[0][0]                │
├───────────────────────────────┼───────────────────────────┼─────────────────┼────────────────────────────┤
│ multiply_3 (Multiply)         │ (None, 1, 1, 480)         │               0 │ re_lu_14[0][0]             │
├───────────────────────────────┼───────────────────────────┼─────────────────┼────────────────────────────┤
│ expanded_conv_10_squeeze_exc… │ (None, 14, 14, 480)       │               0 │ activation_10[0][0],       │
│ (Multiply)                    │                           │                 │ multiply_3[0][0]           │
├───────────────────────────────┼───────────────────────────┼─────────────────┼────────────────────────────┤
│ expanded_conv_10_project      │ (None, 14, 14, 112)       │          53,760 │ expanded_conv_10_squeeze_… │
│ (Conv2D)                      │                           │                 │                            │
├───────────────────────────────┼───────────────────────────┼─────────────────┼────────────────────────────┤
│ expanded_conv_10_project_bn   │ (None, 14, 14, 112)       │             448 │ expanded_conv_10_project[… │
│ (BatchNormalization)          │                           │                 │                            │
├───────────────────────────────┼───────────────────────────┼─────────────────┼────────────────────────────┤
│ expanded_conv_11_expand       │ (None, 14, 14, 672)       │          75,264 │ expanded_conv_10_project_… │
│ (Conv2D)                      │                           │                 │                            │
├───────────────────────────────┼───────────────────────────┼─────────────────┼────────────────────────────┤
│ expanded_conv_11_expand_bn    │ (None, 14, 14, 672)       │           2,688 │ expanded_conv_11_expand[0… │
│ (BatchNormalization)          │                           │                 │                            │
├───────────────────────────────┼───────────────────────────┼─────────────────┼────────────────────────────┤
│ activation_11 (Activation)    │ (None, 14, 14, 672)       │               0 │ expanded_conv_11_expand_b… │
├───────────────────────────────┼───────────────────────────┼─────────────────┼────────────────────────────┤
│ expanded_conv_11_depthwise    │ (None, 14, 14, 672)       │           6,048 │ activation_11[0][0]        │
│ (DepthwiseConv2D)             │                           │                 │                            │
├───────────────────────────────┼───────────────────────────┼─────────────────┼────────────────────────────┤
│ expanded_conv_11_depthwise_bn │ (None, 14, 14, 672)       │           2,688 │ expanded_conv_11_depthwis… │
│ (BatchNormalization)          │                           │                 │                            │
├───────────────────────────────┼───────────────────────────┼─────────────────┼────────────────────────────┤
│ activation_12 (Activation)    │ (None, 14, 14, 672)       │               0 │ expanded_conv_11_depthwis… │
├───────────────────────────────┼───────────────────────────┼─────────────────┼────────────────────────────┤
│ expanded_conv_11_squeeze_exc… │ (None, 1, 1, 672)         │               0 │ activation_12[0][0]        │
│ (GlobalAveragePooling2D)      │                           │                 │                            │
├───────────────────────────────┼───────────────────────────┼─────────────────┼────────────────────────────┤
│ expanded_conv_11_squeeze_exc… │ (None, 1, 1, 168)         │         113,064 │ expanded_conv_11_squeeze_… │
│ (Conv2D)                      │                           │                 │                            │
├───────────────────────────────┼───────────────────────────┼─────────────────┼────────────────────────────┤
│ expanded_conv_11_squeeze_exc… │ (None, 1, 1, 168)         │               0 │ expanded_conv_11_squeeze_… │
│ (ReLU)                        │                           │                 │                            │
├───────────────────────────────┼───────────────────────────┼─────────────────┼────────────────────────────┤
│ expanded_conv_11_squeeze_exc… │ (None, 1, 1, 672)         │         113,568 │ expanded_conv_11_squeeze_… │
│ (Conv2D)                      │                           │                 │                            │
├───────────────────────────────┼───────────────────────────┼─────────────────┼────────────────────────────┤
│ add_4 (Add)                   │ (None, 1, 1, 672)         │               0 │ expanded_conv_11_squeeze_… │
├───────────────────────────────┼───────────────────────────┼─────────────────┼────────────────────────────┤
│ re_lu_15 (ReLU)               │ (None, 1, 1, 672)         │               0 │ add_4[0][0]                │
├───────────────────────────────┼───────────────────────────┼─────────────────┼────────────────────────────┤
│ multiply_4 (Multiply)         │ (None, 1, 1, 672)         │               0 │ re_lu_15[0][0]             │
├───────────────────────────────┼───────────────────────────┼─────────────────┼────────────────────────────┤
│ expanded_conv_11_squeeze_exc… │ (None, 14, 14, 672)       │               0 │ activation_12[0][0],       │
│ (Multiply)                    │                           │                 │ multiply_4[0][0]           │
├───────────────────────────────┼───────────────────────────┼─────────────────┼────────────────────────────┤
│ expanded_conv_11_project      │ (None, 14, 14, 112)       │          75,264 │ expanded_conv_11_squeeze_… │
│ (Conv2D)                      │                           │                 │                            │
├───────────────────────────────┼───────────────────────────┼─────────────────┼────────────────────────────┤
│ expanded_conv_11_project_bn   │ (None, 14, 14, 112)       │             448 │ expanded_conv_11_project[… │
│ (BatchNormalization)          │                           │                 │                            │
├───────────────────────────────┼───────────────────────────┼─────────────────┼────────────────────────────┤
│ expanded_conv_11_add (Add)    │ (None, 14, 14, 112)       │               0 │ expanded_conv_10_project_… │
│                               │                           │                 │ expanded_conv_11_project_… │
├───────────────────────────────┼───────────────────────────┼─────────────────┼────────────────────────────┤
│ expanded_conv_12_expand       │ (None, 14, 14, 672)       │          75,264 │ expanded_conv_11_add[0][0] │
│ (Conv2D)                      │                           │                 │                            │
├───────────────────────────────┼───────────────────────────┼─────────────────┼────────────────────────────┤
│ expanded_conv_12_expand_bn    │ (None, 14, 14, 672)       │           2,688 │ expanded_conv_12_expand[0… │
│ (BatchNormalization)          │                           │                 │                            │
├───────────────────────────────┼───────────────────────────┼─────────────────┼────────────────────────────┤
│ activation_13 (Activation)    │ (None, 14, 14, 672)       │               0 │ expanded_conv_12_expand_b… │
├───────────────────────────────┼───────────────────────────┼─────────────────┼────────────────────────────┤
│ expanded_conv_12_depthwise_p… │ (None, 17, 17, 672)       │               0 │ activation_13[0][0]        │
│ (ZeroPadding2D)               │                           │                 │                            │
├───────────────────────────────┼───────────────────────────┼─────────────────┼────────────────────────────┤
│ expanded_conv_12_depthwise    │ (None, 7, 7, 672)         │          16,800 │ expanded_conv_12_depthwis… │
│ (DepthwiseConv2D)             │                           │                 │                            │
├───────────────────────────────┼───────────────────────────┼─────────────────┼────────────────────────────┤
│ expanded_conv_12_depthwise_bn │ (None, 7, 7, 672)         │           2,688 │ expanded_conv_12_depthwis… │
│ (BatchNormalization)          │                           │                 │                            │
├───────────────────────────────┼───────────────────────────┼─────────────────┼────────────────────────────┤
│ activation_14 (Activation)    │ (None, 7, 7, 672)         │               0 │ expanded_conv_12_depthwis… │
├───────────────────────────────┼───────────────────────────┼─────────────────┼────────────────────────────┤
│ expanded_conv_12_squeeze_exc… │ (None, 1, 1, 672)         │               0 │ activation_14[0][0]        │
│ (GlobalAveragePooling2D)      │                           │                 │                            │
├───────────────────────────────┼───────────────────────────┼─────────────────┼────────────────────────────┤
│ expanded_conv_12_squeeze_exc… │ (None, 1, 1, 168)         │         113,064 │ expanded_conv_12_squeeze_… │
│ (Conv2D)                      │                           │                 │                            │
├───────────────────────────────┼───────────────────────────┼─────────────────┼────────────────────────────┤
│ expanded_conv_12_squeeze_exc… │ (None, 1, 1, 168)         │               0 │ expanded_conv_12_squeeze_… │
│ (ReLU)                        │                           │                 │                            │
├───────────────────────────────┼───────────────────────────┼─────────────────┼────────────────────────────┤
│ expanded_conv_12_squeeze_exc… │ (None, 1, 1, 672)         │         113,568 │ expanded_conv_12_squeeze_… │
│ (Conv2D)                      │                           │                 │                            │
├───────────────────────────────┼───────────────────────────┼─────────────────┼────────────────────────────┤
│ add_5 (Add)                   │ (None, 1, 1, 672)         │               0 │ expanded_conv_12_squeeze_… │
├───────────────────────────────┼───────────────────────────┼─────────────────┼────────────────────────────┤
│ re_lu_16 (ReLU)               │ (None, 1, 1, 672)         │               0 │ add_5[0][0]                │
├───────────────────────────────┼───────────────────────────┼─────────────────┼────────────────────────────┤
│ multiply_5 (Multiply)         │ (None, 1, 1, 672)         │               0 │ re_lu_16[0][0]             │
├───────────────────────────────┼───────────────────────────┼─────────────────┼────────────────────────────┤
│ expanded_conv_12_squeeze_exc… │ (None, 7, 7, 672)         │               0 │ activation_14[0][0],       │
│ (Multiply)                    │                           │                 │ multiply_5[0][0]           │
├───────────────────────────────┼───────────────────────────┼─────────────────┼────────────────────────────┤
│ expanded_conv_12_project      │ (None, 7, 7, 160)         │         107,520 │ expanded_conv_12_squeeze_… │
│ (Conv2D)                      │                           │                 │                            │
├───────────────────────────────┼───────────────────────────┼─────────────────┼────────────────────────────┤
│ expanded_conv_12_project_bn   │ (None, 7, 7, 160)         │             640 │ expanded_conv_12_project[… │
│ (BatchNormalization)          │                           │                 │                            │
├───────────────────────────────┼───────────────────────────┼─────────────────┼────────────────────────────┤
│ expanded_conv_13_expand       │ (None, 7, 7, 960)         │         153,600 │ expanded_conv_12_project_… │
│ (Conv2D)                      │                           │                 │                            │
├───────────────────────────────┼───────────────────────────┼─────────────────┼────────────────────────────┤
│ expanded_conv_13_expand_bn    │ (None, 7, 7, 960)         │           3,840 │ expanded_conv_13_expand[0… │
│ (BatchNormalization)          │                           │                 │                            │
├───────────────────────────────┼───────────────────────────┼─────────────────┼────────────────────────────┤
│ activation_15 (Activation)    │ (None, 7, 7, 960)         │               0 │ expanded_conv_13_expand_b… │
├───────────────────────────────┼───────────────────────────┼─────────────────┼────────────────────────────┤
│ expanded_conv_13_depthwise    │ (None, 7, 7, 960)         │          24,000 │ activation_15[0][0]        │
│ (DepthwiseConv2D)             │                           │                 │                            │
├───────────────────────────────┼───────────────────────────┼─────────────────┼────────────────────────────┤
│ expanded_conv_13_depthwise_bn │ (None, 7, 7, 960)         │           3,840 │ expanded_conv_13_depthwis… │
│ (BatchNormalization)          │                           │                 │                            │
├───────────────────────────────┼───────────────────────────┼─────────────────┼────────────────────────────┤
│ activation_16 (Activation)    │ (None, 7, 7, 960)         │               0 │ expanded_conv_13_depthwis… │
├───────────────────────────────┼───────────────────────────┼─────────────────┼────────────────────────────┤
│ expanded_conv_13_squeeze_exc… │ (None, 1, 1, 960)         │               0 │ activation_16[0][0]        │
│ (GlobalAveragePooling2D)      │                           │                 │                            │
├───────────────────────────────┼───────────────────────────┼─────────────────┼────────────────────────────┤
│ expanded_conv_13_squeeze_exc… │ (None, 1, 1, 240)         │         230,640 │ expanded_conv_13_squeeze_… │
│ (Conv2D)                      │                           │                 │                            │
├───────────────────────────────┼───────────────────────────┼─────────────────┼────────────────────────────┤
│ expanded_conv_13_squeeze_exc… │ (None, 1, 1, 240)         │               0 │ expanded_conv_13_squeeze_… │
│ (ReLU)                        │                           │                 │                            │
├───────────────────────────────┼───────────────────────────┼─────────────────┼────────────────────────────┤
│ expanded_conv_13_squeeze_exc… │ (None, 1, 1, 960)         │         231,360 │ expanded_conv_13_squeeze_… │
│ (Conv2D)                      │                           │                 │                            │
├───────────────────────────────┼───────────────────────────┼─────────────────┼────────────────────────────┤
│ add_6 (Add)                   │ (None, 1, 1, 960)         │               0 │ expanded_conv_13_squeeze_… │
├───────────────────────────────┼───────────────────────────┼─────────────────┼────────────────────────────┤
│ re_lu_17 (ReLU)               │ (None, 1, 1, 960)         │               0 │ add_6[0][0]                │
├───────────────────────────────┼───────────────────────────┼─────────────────┼────────────────────────────┤
│ multiply_6 (Multiply)         │ (None, 1, 1, 960)         │               0 │ re_lu_17[0][0]             │
├───────────────────────────────┼───────────────────────────┼─────────────────┼────────────────────────────┤
│ expanded_conv_13_squeeze_exc… │ (None, 7, 7, 960)         │               0 │ activation_16[0][0],       │
│ (Multiply)                    │                           │                 │ multiply_6[0][0]           │
├───────────────────────────────┼───────────────────────────┼─────────────────┼────────────────────────────┤
│ expanded_conv_13_project      │ (None, 7, 7, 160)         │         153,600 │ expanded_conv_13_squeeze_… │
│ (Conv2D)                      │                           │                 │                            │
├───────────────────────────────┼───────────────────────────┼─────────────────┼────────────────────────────┤
│ expanded_conv_13_project_bn   │ (None, 7, 7, 160)         │             640 │ expanded_conv_13_project[… │
│ (BatchNormalization)          │                           │                 │                            │
├───────────────────────────────┼───────────────────────────┼─────────────────┼────────────────────────────┤
│ expanded_conv_13_add (Add)    │ (None, 7, 7, 160)         │               0 │ expanded_conv_12_project_… │
│                               │                           │                 │ expanded_conv_13_project_… │
├───────────────────────────────┼───────────────────────────┼─────────────────┼────────────────────────────┤
│ expanded_conv_14_expand       │ (None, 7, 7, 960)         │         153,600 │ expanded_conv_13_add[0][0] │
│ (Conv2D)                      │                           │                 │                            │
├───────────────────────────────┼───────────────────────────┼─────────────────┼────────────────────────────┤
│ expanded_conv_14_expand_bn    │ (None, 7, 7, 960)         │           3,840 │ expanded_conv_14_expand[0… │
│ (BatchNormalization)          │                           │                 │                            │
├───────────────────────────────┼───────────────────────────┼─────────────────┼────────────────────────────┤
│ activation_17 (Activation)    │ (None, 7, 7, 960)         │               0 │ expanded_conv_14_expand_b… │
├───────────────────────────────┼───────────────────────────┼─────────────────┼────────────────────────────┤
│ expanded_conv_14_depthwise    │ (None, 7, 7, 960)         │          24,000 │ activation_17[0][0]        │
│ (DepthwiseConv2D)             │                           │                 │                            │
├───────────────────────────────┼───────────────────────────┼─────────────────┼────────────────────────────┤
│ expanded_conv_14_depthwise_bn │ (None, 7, 7, 960)         │           3,840 │ expanded_conv_14_depthwis… │
│ (BatchNormalization)          │                           │                 │                            │
├───────────────────────────────┼───────────────────────────┼─────────────────┼────────────────────────────┤
│ activation_18 (Activation)    │ (None, 7, 7, 960)         │               0 │ expanded_conv_14_depthwis… │
├───────────────────────────────┼───────────────────────────┼─────────────────┼────────────────────────────┤
│ expanded_conv_14_squeeze_exc… │ (None, 1, 1, 960)         │               0 │ activation_18[0][0]        │
│ (GlobalAveragePooling2D)      │                           │                 │                            │
├───────────────────────────────┼───────────────────────────┼─────────────────┼────────────────────────────┤
│ expanded_conv_14_squeeze_exc… │ (None, 1, 1, 240)         │         230,640 │ expanded_conv_14_squeeze_… │
│ (Conv2D)                      │                           │                 │                            │
├───────────────────────────────┼───────────────────────────┼─────────────────┼────────────────────────────┤
│ expanded_conv_14_squeeze_exc… │ (None, 1, 1, 240)         │               0 │ expanded_conv_14_squeeze_… │
│ (ReLU)                        │                           │                 │                            │
├───────────────────────────────┼───────────────────────────┼─────────────────┼────────────────────────────┤
│ expanded_conv_14_squeeze_exc… │ (None, 1, 1, 960)         │         231,360 │ expanded_conv_14_squeeze_… │
│ (Conv2D)                      │                           │                 │                            │
├───────────────────────────────┼───────────────────────────┼─────────────────┼────────────────────────────┤
│ add_7 (Add)                   │ (None, 1, 1, 960)         │               0 │ expanded_conv_14_squeeze_… │
├───────────────────────────────┼───────────────────────────┼─────────────────┼────────────────────────────┤
│ re_lu_18 (ReLU)               │ (None, 1, 1, 960)         │               0 │ add_7[0][0]                │
├───────────────────────────────┼───────────────────────────┼─────────────────┼────────────────────────────┤
│ multiply_7 (Multiply)         │ (None, 1, 1, 960)         │               0 │ re_lu_18[0][0]             │
├───────────────────────────────┼───────────────────────────┼─────────────────┼────────────────────────────┤
│ expanded_conv_14_squeeze_exc… │ (None, 7, 7, 960)         │               0 │ activation_18[0][0],       │
│ (Multiply)                    │                           │                 │ multiply_7[0][0]           │
├───────────────────────────────┼───────────────────────────┼─────────────────┼────────────────────────────┤
│ expanded_conv_14_project      │ (None, 7, 7, 160)         │         153,600 │ expanded_conv_14_squeeze_… │
│ (Conv2D)                      │                           │                 │                            │
├───────────────────────────────┼───────────────────────────┼─────────────────┼────────────────────────────┤
│ expanded_conv_14_project_bn   │ (None, 7, 7, 160)         │             640 │ expanded_conv_14_project[… │
│ (BatchNormalization)          │                           │                 │                            │
├───────────────────────────────┼───────────────────────────┼─────────────────┼────────────────────────────┤
│ expanded_conv_14_add (Add)    │ (None, 7, 7, 160)         │               0 │ expanded_conv_13_add[0][0… │
│                               │                           │                 │ expanded_conv_14_project_… │
├───────────────────────────────┼───────────────────────────┼─────────────────┼────────────────────────────┤
│ conv_1 (Conv2D)               │ (None, 7, 7, 960)         │         153,600 │ expanded_conv_14_add[0][0] │
├───────────────────────────────┼───────────────────────────┼─────────────────┼────────────────────────────┤
│ conv_1_bn                     │ (None, 7, 7, 960)         │           3,840 │ conv_1[0][0]               │
│ (BatchNormalization)          │                           │                 │                            │
├───────────────────────────────┼───────────────────────────┼─────────────────┼────────────────────────────┤
│ activation_19 (Activation)    │ (None, 7, 7, 960)         │               0 │ conv_1_bn[0][0]            │
├───────────────────────────────┼───────────────────────────┼─────────────────┼────────────────────────────┤
│ global_average_pooling2d      │ (None, 960)               │               0 │ activation_19[0][0]        │
│ (GlobalAveragePooling2D)      │                           │                 │                            │
├───────────────────────────────┼───────────────────────────┼─────────────────┼────────────────────────────┤
│ dense (Dense)                 │ (None, 128)               │         123,008 │ global_average_pooling2d[… │
├───────────────────────────────┼───────────────────────────┼─────────────────┼────────────────────────────┤
│ dense_1 (Dense)               │ (None, 3)                 │             387 │ dense[0][0]                │
└───────────────────────────────┴───────────────────────────┴─────────────────┴────────────────────────────┘
 Total params: 3,366,539 (12.84 MB)
 Trainable params: 123,395 (482.01 KB)
 Non-trainable params: 2,996,352 (11.43 MB)
 Optimizer params: 246,792 (964.04 KB)
✅ Model successfully converted and saved as drowsiness_detector.keras
Traceback (most recent call last):
…
