…
Epoch 38/40 | Train Loss: 0.0028, Acc: 99.92% | Val Loss: 4.7596, Acc: 98.74%
Epoch 39/40 | Train Loss: 0.0040, Acc: 99.83% | Val Loss: 2.7817, Acc: 98.69%
Epoch 40/40 | Train Loss: 0.0047, Acc: 99.84% | Val Loss: 0.0390, Acc: 98.87%
Model saved to efficientnet_b0_finetuned.pth
=========================================================================================================
Layer (type:depth-idx)                                  Output Shape              Param #
=========================================================================================================
EfficientNet                                            [1, 3]                    --
├─Sequential: 1-1                                       [1, 1280, 7, 7]           --
│    └─Conv2dNormActivation: 2-1                        [1, 32, 112, 112]         --
│    │    └─Conv2d: 3-1                                 [1, 32, 112, 112]         (864)
│    │    └─BatchNorm2d: 3-2                            [1, 32, 112, 112]         (64)
│    │    └─SiLU: 3-3                                   [1, 32, 112, 112]         --
│    └─Sequential: 2-2                                  [1, 16, 112, 112]         --
│    │    └─MBConv: 3-4                                 [1, 16, 112, 112]         (1,448)
│    └─Sequential: 2-3                                  [1, 24, 56, 56]           --
│    │    └─MBConv: 3-5                                 [1, 24, 56, 56]           (6,004)
│    │    └─MBConv: 3-6                                 [1, 24, 56, 56]           (10,710)
│    └─Sequential: 2-4                                  [1, 40, 28, 28]           --
│    │    └─MBConv: 3-7                                 [1, 40, 28, 28]           (15,350)
│    │    └─MBConv: 3-8                                 [1, 40, 28, 28]           (31,290)
│    └─Sequential: 2-5                                  [1, 80, 14, 14]           --
│    │    └─MBConv: 3-9                                 [1, 80, 14, 14]           (37,130)
│    │    └─MBConv: 3-10                                [1, 80, 14, 14]           (102,900)
│    │    └─MBConv: 3-11                                [1, 80, 14, 14]           (102,900)
│    └─Sequential: 2-6                                  [1, 112, 14, 14]          --
│    │    └─MBConv: 3-12                                [1, 112, 14, 14]          126,004
│    │    └─MBConv: 3-13                                [1, 112, 14, 14]          208,572
│    │    └─MBConv: 3-14                                [1, 112, 14, 14]          208,572
│    └─Sequential: 2-7                                  [1, 192, 7, 7]            --
│    │    └─MBConv: 3-15                                [1, 192, 7, 7]            262,492
│    │    └─MBConv: 3-16                                [1, 192, 7, 7]            587,952
│    │    └─MBConv: 3-17                                [1, 192, 7, 7]            587,952
│    │    └─MBConv: 3-18                                [1, 192, 7, 7]            587,952
│    └─Sequential: 2-8                                  [1, 320, 7, 7]            --
│    │    └─MBConv: 3-19                                [1, 320, 7, 7]            717,232
│    └─Conv2dNormActivation: 2-9                        [1, 1280, 7, 7]           --
│    │    └─Conv2d: 3-20                                [1, 1280, 7, 7]           409,600
│    │    └─BatchNorm2d: 3-21                           [1, 1280, 7, 7]           2,560
│    │    └─SiLU: 3-22                                  [1, 1280, 7, 7]           --
├─AdaptiveAvgPool2d: 1-2                                [1, 1280, 1, 1]           --
├─Sequential: 1-3                                       [1, 3]                    --
│    └─Dropout: 2-10                                    [1, 1280]                 --
│    └─Linear: 2-11                                     [1, 3]                    3,843
=========================================================================================================
Total params: 4,011,391
Trainable params: 3,702,731
Non-trainable params: 308,660
Total mult-adds (M): 384.59
=========================================================================================================
Input size (MB): 0.60
Forward/backward pass size (MB): 107.88
Params size (MB): 16.05
…
